Assignment3/params/autoencoder.pth (torch, 30807 bytes, 36 tensors)

encoder.0.weight f4 [6, 3, 3, 3]
-0.10348408 0.16859779 0.11040471 0.073196754 -0.0856875 -0.0711602 -0.03148865 0.029694295
0.15881215 0.049990583 0.0454851 -0.09447522 0.010902831 0.09197584 0.17967476 -0.05367628
0.039022118 -0.008935424 0.1794961 -0.0035770065 0.10148385 0.1836207 -0.09801261 0.019025298
0.089788005 0.13363959 0.04196726 0.033345137 -0.18708321 -0.029418476 0.012150019 0.042641636
-0.18951699 -0.15051873 -0.026462693 -0.1821104 0.11351901 -0.1631933 -0.11078131 0.08682978
-0.10422431 0.048138343 -0.064853586 -0.030309504 0.08570024 0.06491465 -0.08608468 0.17346032
-0.07467991 -0.16529915 0.026437718 0.088723324 0.015803799 -0.008963434 -0.0801545 0.150592
-0.15569201 -0.062250804 0.06574756 -0.12524197 0.050923802 -0.14596121 -0.090605944 0.14533387
-0.020992449 0.12965451 -0.04802787 5.96123e-06 0.055028576 0.053651556 -0.21554403 -0.095806226
0.042193417 -0.15231094 -0.049051903 -0.092823 0.14898032 -0.14129399 0.10636229 -0.17146789
-0.074403085 -0.15197574 -0.11903554 -0.043473307 -0.10763072 0.14743212 -0.116457894 0.15928943
0.13658309 -0.056753855 -0.09227538 0.0057924525 -0.08964623 -0.056190673 0.0710046 0.023168731
-0.053400163 -0.13903457 0.16850573 -0.060174737 0.009261575 0.02400154 0.15552145 -0.1765565
-0.1263454 -0.13161346 0.0052782083 0.14361757 -0.013914588 -0.04469904 0.06739789 0.1437241
0.15400864 -0.042806532 0.10979253 -0.07511334 -0.0050443606 -0.10347197 -0.05869946 -0.08289462
-0.054664187 -0.04075647 0.023690568 -0.018573346 0.032807797 -0.10680721 0.041015707 0.12938897
-0.1123192 -0.12711598 -0.022869404 -0.15402125 -0.1677666 -0.007666017 -0.119086266 -0.16756918
0.044088464 0.06203346 -0.08113725 -0.025554933 -0.09726345 0.12849297 -0.19798595 -0.034176175
-0.10096385 -0.16811734 -0.0015995867 0.12717703 -0.0070557506 -0.1369492 0.14697012 -0.003851864
-0.2067851 0.016979327 0.037789907 -0.17329727 0.08336415 0.12537694 -0.062186766 -0.16275433
-0.14128894 0.072421804
00000000: 76ef d3bd e6a4 2c3e dd1b e23d 2ee8 953d
00000010: ee7c afbd 70bc 91bd 3efa 00bd 7341 f33c
00000020: a79f 223e edc2 4c3d 964e 3a3d 397c c1bd
00000030: caa1 323c d45d bc3d a9fc 373e a9db 5bbd
00000040: a8d5 1f3d e265 12bc d3cd 373e 366c 6abb
00000050: c4d6 cf3d 1107 3c3e d6ba c8bd f1da 9b3c
00000060: c6e2 b73d d1d8 083e dde5 2b3d e994 083d
00000070: be92 3fbe 04ff f0bc e010 473c ffa8 2e3d
00000080: be10 42be 9521 1abe 4ac8 d8bc 267b 3abe
00000090: a87c e83d 251c 27be 50e1 e2bd d0d3 b13d
000000a0: 8e73 d5bd b62c 453d f5d1 84bd a34b f8bc
000000b0: 9c83 af3d f9f1 843d 2a4d b0bd 959f 313e
000000c0: c8f1 98bd 2e44 29be ea93 d83c 93b4 b53d
000000d0: f876 813c 5edb 12bc 0b28 a4bd ca34 1a3e
000000e0: ba6d 1fbe b3fa 7ebd a8a6 863d 6e3f 00be
000000f0: 7a95 503d db76 15be 9c8f b9bd 67d2 143e
00000100: 5bf8 abbc 27c4 043e dfb8 44bd 9306 c836
00000110: a565 613d bcc1 5b3d 93b7 5cbe 0e36 c4bd
00000120: 01d3 2c3d 66f7 1bbe a6ea 48bd fc19 bebd
00000130: 4c8e 183e 5faf 10be 79d4 d93d 4795 2fbe
00000140: a560 98bd 879f 1bbe e8c8 f3bd 1111 32bd
00000150: 7f6d dcbd 72f8 163e 7a81 eebd c51c 233e
00000160: 70dc 0b3e bb76 68bd e0fa bcbd 9dce bd3b
00000170: 7198 b7bd 3128 66bd dc6a 913d 5acc bd3c
00000180: 21ba 5abd 145f 0ebe c48c 2c3e c979 76bd
00000190: dcbd 173c e19e c43c 0441 1f3e 3acb 34be
000001a0: b060 01be aec5 06be d2f4 ac3b 7c10 133e
000001b0: 03fa 63bc 5716 37bd e807 8a3d 692c 133e
000001c0: 71b4 1d3e e755 2fbd e8da e03d 06d5 99bd
000001d0: 2a4b a5bb 1de9 d3bd d86e 70bd a8c4 a9bd
000001e0: 8ee7 5fbd 42f0 26bd b912 c23c 2127 98bc
000001f0: 7861 063d bdbd dabd 1600 283d 8b7e 043e
00000200: 9c07 e6bd b12a 02be 9e58 bbbc bfb7 1dbe
00000210: 02cb 2bbe 3633 fbbb 80e3 f3bd 4197 2bbe
00000220: 1b96 343d cc16 7e3d 492b a6bd 9458 d1bc
00000230: 0f32 c7bd a993 033e d4bc 4abe 51fc 0bbd
00000240: 23c6 cebd f426 2cbe 39a9 d1ba b23a 023e
00000250: ed33 e7bb 693c 0cbe 567f 163e 8e6f 7cbb
00000260: 79bf 53be 3b18 8b3c 97c9 1a3d d774 31be
00000270: d3ba aa3d d062 003e 8db7 7ebd 12a9 26be
00000280: 0cae 10be e251 943d

encoder.0.bias f4 [6]
-2.9308444e-07 5.8369158e-05 -2.7630236e-07 8.208709e-07 1.1828745e-06 1.3091219e-06
00000000: 3859 9db4 68d1 7438 b556 94b4 d259 5c35
00000010: 42c3 9e35 16b5 af35

encoder.1.weight f4 [6]
1.0035776 0.8956348 0.8719707 0.9241335 0.9331823 0.9439029
00000000: 3b75 803f 5248 653f 7939 5f3f 0394 6c3f
00000010: 09e5 6e3f 9fa3 713f

encoder.1.bias f4 [6]
-0.05678587 0.058474068 -0.020888902 0.16593707 0.081981175 0.25189066
00000000: 4d98 68bd 8182 6f3d 341f abbc 68eb 293e
00000010: bfe5 a73d d0f7 803e

encoder.1.running_mean f4 [6]
0.48909575 -0.37085348 -0.33130166 -0.20229852 -0.2441117 -0.41141358
00000000: c26a fa3e 82e0 bdbe 5fa0 a9be 5827 4fbe
00000010: 6bf8 79be cda4 d2be

encoder.1.running_var f4 [6]
0.07624052 0.039287165 0.03519187 0.013345016 0.026246658 0.04958206
00000000: fd23 9c3d 94eb 203d 5a25 103d 0ea5 5a3c
00000010: 3b03 d73c 8f16 4b3d

encoder.4.weight f4 [10, 6, 3, 3]
0.13370705 0.06848226 0.105121955 -0.0449623 -0.061534435 0.10126288 -0.11661372 -0.036407944
0.033610314 0.06791272 0.10486559 0.03666688 0.034667864 0.08025547 -0.089797646 -0.006609418
-0.024166266 0.13071214 0.062490452 -0.03340774 0.039161652 0.12460955 -0.009352364 0.10228437
0.14489882 -0.006904549 0.04797869 0.049481492 0.03722202 -0.07604263 0.041904144 0.022186512
0.057845697 0.107805386 0.09336803 -0.092224486 -0.039228693 0.028270729 0.010706494 0.000406759
-0.028308563 0.02964369 -0.043218434 0.13567059 -0.0039600595 0.07422735 0.012650967 0.12887198
-0.04105492 0.13195871 0.0772912 -0.0039168973 -0.025433106 0.104039185 0.15891568 0.09681641
0.04069975 -0.007814965 0.048689514 -0.07357116 0.081179686 0.08960814 0.090100355 0.0035960595
0.00029789584 -0.000720178 -0.046899226 -0.011294394 0.06283349 -0.023150554 0.051376805 -0.011443693
-0.00052648666 -0.013049419 -0.05365274 0.0068683038 0.06507806 -0.05599266 0.104838505 -0.014420157
0.10612529 0.02039016 0.08149895 0.00637644 0.004940361 -0.05651325 -0.014252362 0.06205172
-0.10903668 0.027113473 0.03758727 -0.096966535 0.06785411 -0.03161787 0.0695135 -0.05416751
0.09145763 -0.065236546 -0.08119282 0.0756372 0.031851776 -0.0135684265 0.11269469 0.088121764
-0.033373326 -0.0067370967 -0.04549679 0.039967183 0.11271668 -0.01899626 0.07109416 -0.0724232
0.047965363 -0.14292945 -0.069289126 -0.11841021 -0.09386419 0.067394584 0.10303562 0.08475966
-0.06179397 0.15378638 -0.006040776 -0.0090850955 -0.066189796 -0.047106013 0.12319674 0.107678205
0.035883006 -0.036668807 0.0832169 0.1065652 -0.02841411 0.01681179 0.058139253 -0.0010874553
-0.030460589 0.0070343944 0.032711517 -0.05893634 0.041435577 0.040225066 -0.05544463 0.007267929
0.10895528 -0.06543045 0.032424454 0.0013450048 0.092737116 0.026882906 0.1183884 0.091333315
0.09945148 -0.10126271 -0.029836465 0.08325559 -0.015185807 -0.07702395 0.07461631 0.11194103
0.104822256 0.023719396 0.098950356 0.08519266 -0.0646777 -0.00016670967 0.033682283 0.115787864
0.08033009 0.07272356 0.092558056 0.032638576 0.0705321 -0.015010258 -0.09082291 0.059264626
0.09211959 0.07739193 -0.05037753 0.08658704 -0.029594697 0.07535376 0.0028399064 -0.07612641
-0.093478985 0.03312061 -0.081033014 0.042462077 -0.037669983 0.11276704 0.0014243112 -0.0452441
0.03230562 -0.13652171 0.05165675 0.09117813 0.013232884 -0.090965316 0.029405974 -0.07553855
0.0028762168 0.007013754 -0.0062581296 0.054988883 0.026172057 0.08245287 0.031224908 -0.011959775
-0.04962879 -0.072647355 -0.12568568 0.030477976 -0.03218455 0.08981316 -0.10767962 0.019547468
-0.09457155 -0.04936935 -0.035273716 0.016345138 -0.095848896 0.059525836 -0.096068434 -0.1461913
0.025685128 -0.15527025 -0.13646542 -0.048478868 -0.00031335623 0.09543251 -0.121241726 -0.10810195
0.0255821 -0.09059197 -0.09534033 0.02169309 0.03846009 0.088873364 -0.077754 0.021841407
-0.07931939 0.09965358 -0.08117796 0.01639262 0.027837172 0.08381956 0.06571997 -0.13759722
-0.01874031 -0.082805835 -0.047855567 -0.09830057 0.012176737 -0.12189997 -0.0708411 0.084923476
00000000: 80ea 083e 6d40 8c3d 2e4a d73d 642a 38bd
00000010: 880b 7cbd ea62 cf3d 2dd3 eebd 7f20 15bd
00000020: f8aa 093d d315 8b3d c5c3 d63d 0330 163d
00000030: e4ff 0d3d fb5c a43d d4e7 b7bd d193 d8bb
00000040: 55f8 c5bc 67d9 053e fdf5 7f3d 8ed6 08bd
00000050: f867 203d 4b33 ff3d a83a 19bc 787a d13d
00000060: 5b60 143e 8e3f e2bb 4e85 443d 1bad 4a3d
00000070: 1e76 183d 3dbc 9bbd aea3 2b3d 7dc0 b53c
00000080: 9cef 6c3d 12c9 dc3d bd37 bf3d 31e0 bcbd
00000090: 44ae 20bd 0498 e73c 4a6a 2f3c 4542 d539
000000a0: 5ce7 e7bc 53d7 f23c d005 31bd 3bed 0a3e
000000b0: 63c3 81bb 8204 983d 0046 4f3c 04f7 033e
000000c0: 3429 28bd 2f20 073e d94a 9e3d 5159 80bb
000000d0: 1759 d0bc 7f12 d53d cbba 223e af47 c63d
000000e0: c8b4 263d 570a 00bc a86e 473d 7aac 96bd
000000f0: 8941 a63d 7984 b73d 8986 b83d deab 6b3b
00000100: e72e 9c39 54ca 3cba 6719 40bd 1f0c 39bc
00000110: d8ae 803d 3ba6 bdbc 7c70 523d 547e 3bbc
00000120: ec03 0aba 3bcd 55bc fac2 5bbd 820f e13b
00000130: a547 853d 8f58 65bd 92b5 d63d 8642 6cbc
00000140: 3758 d93d 4409 a73c ece8 a63d 75f1 d03b
00000150: c0e2 a13b 707a 67bd bd82 69bc f229 7e3d
00000160: 9f4e dfbd 131d de3c 1cf5 193d 6496 c6bd
00000170: 18f7 8a3d bd81 01bd 185d 8e3d c0de 5dbd
00000180: 234e bb3d bd9a 85bd 6c48 a6bd ade7 9a3d
00000190: 0277 023d 1b4e 5ebc 79cc e63d 2f79 b43d
000001a0: 78b2 08bd ddc2 dcbb d85a 3abd a1b4 233d
000001b0: 01d8 e63d 0b9e 9bbc d199 913d 9d52 94bd
000001c0: 5477 443d 195c 12be 75e7 8dbd 0d81 f2bd
000001d0: de3b c0bd 2c06 8a3d 5704 d33d 7996 ad3d
000001e0: ad1b 7dbd 2d7a 1d3e b4f1 c5bb a7d9 14bc
000001f0: 848e 87bd 3cf2 40bd 934e fc3d 6486 dc3d
00000200: 0ffa 123d 0832 16bd 9f6d aa3d db3e da3d
00000210: b5c4 e8bc e1b8 893c 6d23 6e3d f288 8eba
00000220: 7c88 f9bc c780 e63b 83fc 053d 3b67 71bd
00000230: 5ab8 293d 0ac3 243d e919 63bd cf27 ee3b
00000240: f223 df3d 6600 86bd 81cf 043d df4a b03a
00000250: f5ec bd3d 8a39 dc3c 9e75 f23d f60c bb3d
00000260: 38ad cb3d d362 cfbd 9a6b f4bc e881 aa3d
00000270: e4cd 78bc bcbe 9dbd 70d0 983d 5741 e53d
00000280: 0dad d63d 2e4f c23c 7ca6 ca3d 7d79 ae3d
00000290: be75 84bd c9ce 2eb9 6ff6 093d 3022 ed3d
000002a0: 1a84 a43d 17f0 943d 148f bd3d 07b0 053d
000002b0: 2273 903d 96ed 75bc 5d01 babd 77bf 723d
000002c0: 32a9 bc3d a97f 9e3d ab58 4ebd 8c54 b13d
000002d0: 9470 f2bc 1253 9a3d b91d 3a3b 2ae8 9bbd
000002e0: e971 bfbd 7aa9 073d a3f4 a5bd b7ec 2d3d
000002f0: d74b 1abd 68f2 e63d f4af ba3a e151 39bd
00000300: e652 043d 59cc 0bbe 0796 533d 99bb ba3d
00000310: bdce 583c 064c babd cce4 f03c f5b3 9abd
00000320: e97e 3c3b a2d3 e53b ff10 cdbb 063c 613d
00000330: c866 d63c 0ddd a83d 61cb ff3c eff2 43bc
00000340: 8f47 4bbd 23c8 94bd bfb3 00be f3ac f93c
00000350: f2d3 03bd f6ef b73d 2287 dcbd 0322 a03c
00000360: bbae c1bd 8437 4abd 2c7b 10bd 3de6 853c
00000370: 6d4c c4bd 5dd1 733d 87bf c4bd 2cb3 15be
00000380: 9e69 d23c 2aff 1ebe 97bd 0bbe c791 46bd
00000390: f649 a4b9 1f72 c33d 954d f8bd 8e64 ddbd
000003a0: 8d91 d13c 4888 b9bd ca41 c3bd b5b5 b13c
000003b0: 5488 1d3d 3d03 b63d 7d3d 9fbd c0ec b23c
000003c0: 3472 a2bd 2d17 cc3d a140 a6bd d149 863c
000003d0: c80a e43c 97a9 ab3d 3198 863d 49e6 0cbe
000003e0: 4785 99bc 1b96 a9bd 3304 44bd cf51 c9bd
000003f0: f080 473c b1a6 f9bd 2315 91bd 5cec ad3d

encoder.4.bias f4 [10]
-1.01303186e-07 2.940998e-07 -1.2924701e-08 -2.1097593e-07 4.7113645e-07 -5.3139164e-08 1.8385724e-07 -5.227175e-08
4.34387e-08 -7.0549575e-08
00000000: 048c d9b3 c5e4 9d34 700b 5eb2 9f88 62b4
00000010: 80f0 fc34 213b 64b3 4b6a 4534 6681 60b3
00000020: 5b91 3a33 0a81 97b3

encoder.5.weight f4 [10]
0.87921077 1.0039061 0.94861305 0.92582494 0.9383924 0.93553525 0.91100866 0.9487631
0.8967827 0.93402374
00000000: f513 613f ff7f 803f 4ed8 723f dd02 6d3f
00000010: 7c3a 703f 3d7f 6f3f dd37 693f 23e2 723f
00000020: 8d93 653f 2e1c 6f3f

encoder.5.bias f4 [10]
-0.048340917 0.014119155 0.07802857 0.069825985 0.050726656 0.009445301 -0.040382892 -0.051416684
0.016831541 0.04463018
00000000: 2001 46bd 0754 673c 71cd 9f3d ed00 8f3d
00000010: c1c6 4f3d 77c0 1a3c 8868 25bd 4d9a 52bd
00000020: 4de2 893c 23ce 363d

encoder.5.running_mean f4 [10]
0.86068404 0.34742218 0.49313223 0.1723377 -0.8537432 -0.1696141 -0.53841966 -1.0118219
0.0034797848 -0.9675061
00000000: ca55 5c3f 52e1 b13e d47b fc3e 4b79 303e
00000010: ea8e 5abf 52af 2dbe dfd5 09bf 6183 81bf
00000020: 1a0d 643b 7bae 77bf

encoder.5.running_var f4 [10]
0.5371186 0.07326865 0.5532231 0.124770656 0.3270593 0.32430536 0.4552088 0.6002879
0.26946744 0.38651663
00000000: 9b80 093f e00d 963d 07a0 0d3f c287 ff3d
00000010: 5174 a73e 5a0b a63e 2111 e93e 78ac 193f
00000020: a3f7 893e 82e5 c53e

encoder.8.weight f4 [16, 10, 3, 3]
-0.04839291 0.08065294 -0.057933494 -0.04074374 0.036526397 0.07362114 0.06841714 0.06901628
-0.01793204 0.08818652 0.10277204 0.03243173 0.1437199 0.033272766 0.004940207 -0.08446692
0.09986717 0.08009015 0.047050316 -0.074125566 0.031326 -0.002186868 0.044398755 0.08792267
0.090044565 -0.052302487 0.028222164 -0.021080056 0.08673211 0.018175375 -0.0060048206 0.0707138
-0.019657519 -0.030137908 0.062490694 0.0025789635 -0.0011700649 -0.09565786 -0.059274174 -0.019644557
0.014791037 -0.07694243 -0.037642214 -0.049163897 0.06451822 0.07333955 -0.0051283957 -0.08578781
0.07736384 -0.090873376 -0.089381054 0.06418355 -0.10394628 0.07110978 -0.06171498 -0.12750204
-0.040717904 -0.01430922 0.07850555 -0.0062104687 0.03069096 -0.01488869 0.050154813 -0.002326322
0.045708224 0.009481621 0.026881685 -0.10269856 -0.04072307 0.0576598 0.056442242 0.053775348
-0.0025569468 0.0020607489 0.09894605 0.070259 -0.06628981 -0.09100105 -0.07096722 0.015814265
0.07731982 -0.05951075 -0.01999099 -0.05314001 -0.07833248 -0.106557764 -0.093007386 -0.051707037
0.07431461 -0.08908839 0.017180843 -0.06548277 -0.023859508 -0.021553954 -0.032987185 -0.072124615
-0.079128966 -0.0032244746 -0.08853482 -0.0081310775 0.052184828 0.059444588 -0.015784714 0.10158009
0.041952856 -0.024281008 -0.030778782 -0.030187035 0.052170377 0.055216014 -0.022103745 0.007922754
0.013575674 0.06403215 -0.0064773536 0.015456372 -0.0050277263 0.015579156 0.032132164 -0.013842384
0.14638121 0.12876919 0.067567475 0.09986013 0.08410018 -0.02674711 -0.01966324 -0.05418795
-0.026567299 -0.02941329 0.066814706 0.05496055 -0.0652247 -0.02314749 -0.07362949 0.06036568
-0.024424981 -0.0354093 -0.034576423 -0.05648688 0.015387945 -0.051854957 0.033545665 -0.008012486
-0.077591136 0.023259277 -0.011621816 0.0011243868 0.07444054 0.033392195 0.07440198 -0.06768877
0.10281468 0.039954204 -0.07846985 -0.028309911 -0.06229016 -0.075181074 -0.10204319 -0.0720277
-0.10417619 -0.07423361 0.021751713 -0.098343365 0.03989974 0.007905588 -0.007698427 0.033948544
0.052733105 0.033415742 0.040189363 -0.02120651 -0.07004058 0.035946436 -0.049134906 -0.11921736
-0.101536535 0.017099293 -0.0055507603 -0.047609456 -0.114528686 -0.040208176 0.04481891 0.040444467
-0.10399717 0.037842393 0.03523118 -0.03878254 0.060393624 -0.104375295 -0.06781437 -0.0033028699
-0.09426078 -0.06079161 -0.06898292 -0.12587047 -0.022070996 -0.024347467 0.031310707 -0.061076347
0.01890017 0.044562235 0.062443085 -0.0158274 0.064589664 0.022355448 -0.021250185 -0.029426727
-0.0029177063 -0.088693164 -0.10850905 -0.00885309 0.04307132 0.032342214 -0.0012375833 -0.069970645
-0.011180213 0.13697249 0.02148098 0.08071301 0.06280083 0.041766524 0.042443797 0.065062456
-0.0070455433 0.07316016 0.00142545 0.03773179 -0.022136249 0.022733655 0.03161189 0.022133283
-0.057500582 -0.012365542 -0.049862634 -0.083642714 -0.043964304 -0.041370187 -0.12904163 0.056608733
-0.004488112 -0.08880351 -0.04529402 -0.018639715 0.08446839 0.019423788 0.07754518 -0.014197561
-0.020010281 -0.073090136 0.017689424 0.055376958 -0.004268378 0.029790148 -0.09848558 -0.041185565
00000000: a537 46bd 5e2d a53d ac4b 6dbd e8e2 26bd
00000010: b49c 153d aec6 963d 491e 8c3d 6858 8d3d
00000020: 37e6 92bc 229b b43d 267a d23d 22d7 043d
00000030: 4f2b 133e 0649 083d 76e1 a13b fefc acbd
00000040: 2987 cc3d 4e06 a43d d5b7 403d 25cf 97bd
00000050: b14f 003d 8f51 0fbb 78db 353d cd10 b43d
00000060: 4969 b83d 223b 56bd 2b32 e73c 15b0 acbc
00000070: 9ba0 b13d 86e4 943c 16c4 c4bb 66d2 903d
00000080: ce08 a1bc c6e3 f6bc 3ef6 7f3d d403 293b
00000090: dd5c 99ba 45e8 c3bd 7ac9 72bd 9fed a0bc
000000a0: 1b56 723c fe93 9dbd b92e 1abd 1560 49bd
000000b0: 2122 843d 0c33 963d 1a0c a8bb 85b1 afbd
000000c0: ef70 9e3d d21b babd 6a0d b7bd aa72 833d
000000d0: cae1 d4bd 01a2 913d d9c8 7cbd e58f 02be
000000e0: d1c7 26bd 3871 6abc 85c7 a03d 3081 cbbb
000000f0: 9c6b fb3c b1ef 73bc 226f 4d3d 3575 18bb
00000100: 8c38 3b3d cd58 1b3c fb36 dc3c 9f53 d2bd
00000110: 3ccd 26bd af2c 6c3d fb2f 673d 8a43 5c3d
00000120: 7392 27bb a10d 073b 3aa4 ca3d f3e3 8f3d
00000130: f4c2 87bd c25e babd 4357 91bd eb8c 813c
00000140: db59 9e3d 8bc1 73bd 25c4 a3bc 57a9 59bd
00000150: c76c a0bd f53a dabd a87a bebd c2ca 53bd
00000160: 4232 983d f973 b6bd d7be 8c3c d51b 86bd
00000170: 0475 c3bc eb91 b0bc 921d 07bd 12b6 93bd
00000180: 5e0e a2bd b551 53bb be51 b5bd 3638 05bc
00000190: c2bf 553d 2b7c 733d f24e 81bc 3909 d03d
000001a0: c2d6 2b3d f7e8 c6bc c923 fcbc cd4a f7bc
000001b0: 9bb0 553d 302a 623d ea12 b5bc 70ce 013c
000001c0: 816c 5e3c 4a23 833d fb3f d4bb b93c 7d3c
000001d0: a0bf a4bb b73f 7f3c 049d 033d 2bcb 62bc
000001e0: f5e4 153e 12dc 033e d160 8a3d 7883 cc3d
000001f0: b73c ac3d c11c dbbc ce14 a1bc 2ff4 5dbd
00000200: aaa3 d9bc 24f4 f0bc 26d6 883d 501e 613d
00000210: 8794 85bd ce9f bdbc 0fcb 96bd 0142 773d
00000220: e616 c8bc 5809 11bd 02a0 0dbd c95e 67bd
00000230: b81d 7c3c dd65 54bd 2e67 093d cd46 03bc
00000240: 1ae8 9ebd 3d8a be3c 6e69 3ebc 2960 933a
00000250: 4874 983d 41c6 083d 1160 983d 69a0 8abd
00000260: 8190 d23d 05a7 233d cdb4 a0bd 30ea e7bc
00000270: f823 7fbd 89f8 99bd 05fc d0bd 4283 93bd
00000280: 545a d5bd ca07 98bd a630 b23c 3f68 c9bd
00000290: e96d 233d 7086 013c 1643 fcbb a10d 0b3d
000002a0: abfe 573d f2de 083d 9a9d 243d 46b9 adbc
000002b0: 7071 8fbd 923c 133d af41 49bd 3b28 f4bd
000002c0: 63f2 cfbd d113 8c3c 27e3 b5bb 2202 43bd
000002d0: 048e eabd 54b1 24bd 0994 373d 19a9 253d
000002e0: 78fc d4bd a000 1b3d 924e 103d 71da 1ebd
000002f0: 4e5f 773d b7c2 d5bd 43e2 8abd f674 58bb
00000300: cc0b c1bd a000 79bd eb46 8dbd 30e4 00be
00000310: 3cce b4bc 5774 c7bc a83f 003d 312b 7abd
00000320: 88d4 9a3c e486 363d 52c4 7f3d 77a8 81bc
00000330: 9647 843d c622 b73c de14 aebc 5210 f1bc
00000340: fd36 3fbb c3a4 b5bd fe39 debd 8d0c 11bc
00000350: 8d6b 303d 4579 043d 6836 a2ba c54c 8fbd
00000360: 362d 37bc 8442 0c3e e1f8 af3c dd4c a53d
00000370: b99d 803d 6013 2b3d 8cd9 2d3d 773f 853d
00000380: 4dde e6bb fed4 953d 2ad6 ba3a a68c 1a3d
00000390: 1457 b5bc ee3b ba3c 787b 013d dc50 b53c
000003a0: bb85 6bbd d898 4abc c33c 4cbd df4c abbd
000003b0: ea13 34bd c973 29bd 7d23 04be 8fde 673d
000003c0: 0311 93bb 9dde b5bd 3986 39bd 51b2 98bc
000003d0: c3fd ac3d a31e 9f3c 02d0 9e3d e39c 68bc
000003e0: 9aec a3bc 48b0 95bd 69e9 903c f3d2 623d
000003f0: c0dd 8bbb 780a f43c cfb2 c9bd 32b2 28bd

encoder.8.bias f4 [16]
-9.913706e-08 -4.9548873e-08 4.624595e-07 -5.9264746e-08 1.4535142e-07 -1.5318024e-08 1.9336485e-07 7.9018434e-08
-2.491512e-08 6.0638746e-07 -1.8321028e-08 -2.2416673e-08 7.599785e-08 -9.9883195e-08 6.1341814e-07 2.799878e-07
00000000: 2de5 d4b3 90cf 54b3 f347 f834 478a 7eb3
00000010: e511 1c34 b194 83b2 ba9f 4f34 d8b0 a933
00000020: ee04 d6b2 a1c6 2235 5e60 9db2 c98e c0b2
00000030: 4334 a333 5e7f d6b3 c6a9 2435 3b51 9634

encoder.9.weight f4 [16]
0.9393282 0.88885546 0.9784353 0.8680719 0.9581773 0.9380922 0.9492528 0.9325909
0.91162276 0.9357122 0.91672534 0.90142196 0.89621097 0.9815519 0.9835775 0.9498216
00000000: d077 703f 088c 633f bc7a 7a3f f639 5e3f
00000010: 1c4b 753f cf26 703f 3b02 733f 47be 6e3f
00000020: 1c60 693f d68a 6f3f 83ae 6a3f 97c3 663f
00000030: 156e 653f fc46 7b3f bccb 7b3f 8227 733f

encoder.9.bias f4 [16]
-0.041521855 -0.113009505 0.104015544 -0.076034464 0.050123535 0.06335718 -0.016592106 -0.0011655394
0.023535697 0.022148633 0.028221887 0.04605666 0.0026651213 -0.013275362 0.045903713 -0.031412274
00000000: d212 2abd 8771 e7bd 1a06 d53d f5b7 9bbd
00000010: 564e 4d3d 69c1 813d 2bec 87bc 03c5 98ba
00000020: efcd c03c 0d71 b53c 9631 e73c e9a5 3c3d
00000030: 51a9 2e3b e780 59bc 8805 3c3d 28aa 00bd

encoder.9.running_mean f4 [16]
0.071444765 -0.14691854 -0.16905336 0.22637582 -0.4064997 -0.16144222 0.23435594 -0.010288728
0.11713732 -0.3823716 -0.38811713 -0.17362142 -0.16537644 -0.026776193 0.4835867 -0.41056645
00000000: a251 923d d071 16be 531c 2dbe 10cf 673e
00000010: bb20 d0be 1c51 25be 01fb 6f3e 0e92 28bc
00000020: b1e5 ef3d 36c6 c3be 4ab7 c6be d0c9 31be
00000030: 7158 29be bf59 dbbc ad98 f73e c435 d2be

encoder.9.running_var f4 [16]
0.39055908 0.34634876 0.5416047 0.26644978 0.51539797 0.57514125 0.19829859 0.3960676
0.29824072 0.29139963 0.24671628 0.1320276 0.26679808 0.30682904 0.2737231 0.4975872
00000000: 5cf7 c73e a054 b13e 9ba6 0a3f 1b6c 883e
00000010: 1ff1 033f 753c 133f c90e 4b3e 5fc9 ca3e
00000020: 02b3 983e 5532 953e 31a3 7c3e 3e32 073e
00000030: c299 883e b218 9d3e 6f25 8c3e c0c3 fe3e

decoder.0.weight f4 [16, 10, 3, 3]
0.035820395 0.07026937 -0.02207305 0.09428486 0.0470505 0.065788105 0.05280698 0.09064122
-0.026975328 0.022517292 -0.029758178 -0.07471415 0.009736671 0.09481374 0.07561138 0.025755506
0.034973674 -0.014415488 -0.021643842 0.014787674 -0.007899008 -0.07311896 0.11358231 0.12763862
0.013602377 0.008260068 0.033688296 0.07478095 0.025195962 0.124980584 0.08036773 0.07346765
0.14798088 -0.069487296 0.007551129 0.08233752 0.054022823 0.06694256 0.018468754 -0.06502516
-0.10075368 0.07179976 0.07305519 -0.004269146 -0.026579807 0.06334206 0.03365427 0.059753813
0.005063474 0.050686147 -0.02356743 -0.021879373 0.030038362 0.07635769 -0.068522066 -0.07222878
0.03273071 -0.069741026 0.03696175 0.021751242 -0.020389076 0.095237285 0.09311724 -0.075625956
0.022885326 0.013269642 0.09167502 0.06812716 0.0025250479 -0.06598198 0.0822772 -0.03045607
-0.019879885 -0.059790533 -0.047326233 0.0097603435 0.0850972 -0.092757255 -0.013462601 -0.013454866
-0.029934399 -0.0072259037 -0.01960593 0.08875826 -0.014616174 0.09998906 0.11686941 -0.027201103
0.0030894708 0.08128937 0.022303171 -0.0874103 0.003457062 0.044283032 0.05930515 -0.047317814
-0.028294278 0.012780489 0.029215371 0.06446113 -0.06904511 -0.042570245 0.024676824 -0.025002677
-0.019691646 -0.08694052 -0.012581112 -0.033782914 -0.044822566 0.05269938 0.06149604 0.008788446
0.010619933 -0.04769447 -0.003160811 -0.0238605 -0.0016098241 0.018332385 0.0041834232 0.09521837
0.07735702 -0.029343355 0.09577154 -0.09515898 -0.09135379 -0.0718501 0.085592106 -0.064444035
0.050802555 -0.09294875 -0.051437512 -0.032875888 -0.07302575 0.033013742 -0.07126788 0.025100691
0.031168738 0.046466023 -0.1062518 0.023548767 0.07288386 0.044811346 -0.085480556 0.042549945
-0.06313014 -0.030241426 0.018037114 0.08167051 -0.012093861 0.069467805 -0.09821925 -0.010637777
-0.07497037 -0.077056676 0.015647963 -0.022402918 0.06633339 0.036469597 -0.007193348 0.05253875
-0.06356368 -0.049323175 0.029075844 0.051124778 -0.110994145 -0.036502305 0.020097693 -0.09211962
-0.035178557 0.076106906 0.0777693 0.06468007 0.042559907 -0.027987186 -0.006116442 0.055299316
-0.06562044 -0.04313597 0.0051962 0.03407752 0.08911243 -0.10404635 0.03526858 -0.06642913
0.07334896 -0.01892681 -0.09120916 0.0007108624 -0.011557606 -0.054051187 0.040137548 0.01196051
-0.065584235 0.0217026 0.06773511 -0.009948812 -0.1346567 -0.09973805 -0.032692555 -0.041822754
-0.0559524 0.03689128 -0.0570344 -0.031203788 -0.06580885 -0.035851546 -0.07638869 0.0760505
-0.12254536 -0.043560773 -0.036089335 -0.014536235 -0.019154502 -0.032159626 0.009548125 0.04346583
-0.11350481 -0.0017922939 -0.049723435 -0.053670954 0.066474944 -0.055279676 -0.013008998 -0.060876682
-0.1149626 0.006191528 -0.03176521 -0.046569243 -0.07136817 0.0824558 -0.022515932 -0.08495559
-0.013564642 0.07752909 -0.00305537 -0.064396046 -0.09598618 -0.06621673 -0.032691177 -0.07322985
-0.13542825 -0.06764627 0.010106455 -0.073173776 -0.06894215 0.029798005 -0.049810797 -0.14109863
0.016439334 -0.07567921 -0.072411925 -0.029393312 0.034891155 -0.14509563 -0.06174222 -0.15294628
00000000: 68b8 123d 63e9 8f3d 8ad2 b4bc 6c18 c13d
00000010: 06b8 403d eabb 863d 224c 583d 1ba2 b93d
00000020: 5dfb dcbc 2f76 b83c 6cc7 f3bc bb03 99bd
00000030: 8f86 1f3c b52d c23d 24da 9a3d 36fd d23c
00000040: 8e40 0f3d f02e 6cbc 6d4e b1bc 0048 723c
00000050: d76a 01bc 65bf 95bd d89d e83d b3b3 023e
00000060: 81dc 5e3c 3c55 073c bdfc 093d c126 993d
00000070: c367 ce3c d2f5 ff3d d697 a43d 3576 963d
00000080: 4d88 173e 5b4f 8ebd 766f f73b 93a0 a83d
00000090: 0947 5d3d 2e19 893d c94b 973c e92b 85bd
000000a0: f257 cebd c10b 933d f69d 953d 31e4 8bbb
000000b0: e5bd d9bc 7bb9 813d 0fd9 093d 6ac0 743d
000000c0: 80eb a53b 479c 4f3d 7c10 c1bc 5f3c b3bc
000000d0: 0313 f63c 6c61 9c3d 4c55 8cbd afec 93bd
000000e0: a310 063d 62d4 8ebd 3465 173d a92f b23c
000000f0: fe06 a7bc c40b c33d 40b4 be3d c8e1 9abd
00000100: 027a bb3c ea68 593c 1dc0 bb3d 4186 8b3d
00000110: 467b 253b 8f21 87bd f380 a83d 027f f9bc
00000120: 24db a2bc ebe6 74bd 27d9 41bd d9e9 1f3c
00000130: 7147 ae3d 84f7 bdbd 3e92 5cbc cc71 5cbc
00000140: fc38 f5bc 46c7 ecbb 9e9c a0bc e4c6 b53d
00000150: ad78 6fbc 10c7 cc3d 3b59 ef3d d9d4 debc
00000160: b878 4a3b 0b7b a63d 24b5 b63c 2c04 b3bd
00000170: e08f 623b 2062 353d f5e9 723d 53d0 41bd
00000180: 67c9 e7bc 4265 513c 1355 ef3c 3204 843d
00000190: 8667 8dbd 235e 2ebd 0d27 ca3c 6ad2 ccbc
000001a0: 6050 a1bc df0d b2bd 0221 4ebc f45f 0abd
000001b0: de97 37bd 4edb 573d 46e3 7b3d 6afd 0f3c
000001c0: 3aff 2d3c 475b 43bd 9c25 4fbb 1877 c3bc
000001d0: bc00 d3ba cc2d 963c 1915 893b d901 c33d
000001e0: 5b6d 9e3d 7a61 f0bc df23 c43d b6e2 c2bd
000001f0: b217 bbbd 2526 93bd ea4a af3d 3cfb 83bd
00000200: 5716 503d ea5b bebd 24b0 52bd dea8 06bd
00000210: 868e 95bd 6b39 073d e5f4 91bd f79f cd3c
00000220: 9555 ff3c 2853 3e3d 8b9a d9bd 58e9 c03c
00000230: 2244 953d 1a8c 373d 6e10 afbd da48 2e3d
00000240: 604a 81bd debc f7bc 92c2 933c de42 a73d
00000250: 5425 46bc 2345 8e3d 2d27 c9bd 124a 2ebc
00000260: 118a 99bd e4cf 9dbd 2830 803c 5386 b7bc
00000270: cdd9 873d 2561 153d 2db6 ebbb df32 573d
00000280: ad2d 82bd 1907 4abd 7730 ee3c 3768 513d
00000290: e650 e3bd 7183 15bd eba3 a43c 36a9 bcbd
000002a0: 6417 10bd f0dd 9b3d 8345 9f3d fc76 843d
000002b0: 4c53 2e3d 6245 e5bc 6f6c c8bb 8981 623d
000002c0: 0264 86bd 58af 30bd e344 aa3b df94 0b3d
000002d0: 9480 b63d 4116 d5bd c975 103d ff0b 88bd
000002e0: fb37 963d 660c 9bbc decb babd 2b59 3a3a
000002f0: 1d5c 3dbc c764 5dbd 4567 243d 04f6 433c
00000300: 0751 86bd a7c9 b13c b5b8 8a3d 5800 23bc
00000310: 72e3 09be 7643 ccbd a1e8 05bd 564e 2bbd
00000320: 582e 65bd 501b 173d e79c 69bd 169f ffbc
00000330: cac6 86bd 12d9 12bd ac71 9cbd 5dc0 9b3d
00000340: 10f9 fabd c86c 32bd 69d2 13bd 6329 6ebc
00000350: e7e9 9cbc d0b9 03bd bd6f 1c3c 3a09 323d
00000360: 3675 e8bd 67eb eaba cdaa 4bbd 13d6 5bbd
00000370: 0424 883d f16c 62bd b123 55bc d459 79bd
00000380: 8371 ebbd 4de2 ca3b 3d1c 02bd 64bf 3ebd
00000390: 7a29 92bd 96de a83d 5573 b8bc 32fd adbd
000003a0: 3b3e 5ebc 92c7 9e3d 9a3c 48bb 13e2 83bd
000003b0: 6794 c4bd a39c 87bd 2fe7 05bd 88f9 95bd
000003c0: b4ad 0abe 218a 8abd 8b95 253c 22dc 95bd
000003d0: 8b31 8dbd f21a f43c 6806 4cbd 297c 10be
000003e0: c8ab 863c b4fd 9abd b44c 94bd 3eca f0bc
000003f0: 07ea 0e3d f393 14be 69e5 7cbd f39d 1cbe

decoder.0.bias f4 [10]
-1.2281086e-07 -1.9596185e-07 1.7894628e-07 -7.795072e-09 4.8418303e-07 -7.745221e-08 -3.2064608e-07 -3.2703934e-08
1.8777712e-08 4.510589e-07
00000000: fedd 03b4 9569 52b4 6124 4034 17eb 05b2
00000010: cef8 0135 ce53 a6b3 4325 acb4 5b76 0cb3
00000020: a04c a132 1029 f234

decoder.1.weight f4 [10]
0.9796741 1.0219299 0.94632965 0.88955414 0.9908845 0.9535068 1.0199326 1.051434
1.0177475 0.9566678
00000000: eccb 7a3f 99ce 823f a942 723f d2b9 633f
00000010: 9baa 7d3f 0619 743f 278d 823f 6495 863f
00000020: 8d45 823f 2ee8 743f

decoder.1.bias f4 [10]
-0.011586524 0.039639633 -0.020153726 -0.09617041 0.052769523 0.057775386 0.046942312 0.108915485
0.07488919 -0.039033983
00000000: 67d5 3dbc 2b5d 223d 6d19 a5bc fef4 c4bd
00000010: db24 583d e2a5 6c3d 9546 403d 150f df3d
00000020: 815f 993d 19e2 1fbd

decoder.1.running_mean f4 [10]
0.3990298 -0.57347345 -0.010830281 0.3980866 0.010856932 0.20887892 -0.53926134 -0.33305016
-0.72255045 0.4033434
00000000: a24d cc3e 28cf 12bf 7e71 31bc 02d2 cb3e
00000010: 46e1 313c 5be4 553e 080d 0abf 8d85 aabe
00000020: 11f9 38bf 0783 ce3e

decoder.1.running_var f4 [10]
0.95330995 0.7762529 1.3284061 1.035156 0.49499896 0.72592396 0.58695567 1.1232747
0.49268755 0.9799594
00000000: 1f0c 743f 83b8 463f 3609 aa3f fe7f 843f
00000010: 8170 fd3e 27d6 393f ba42 163f 77c7 8f3f
00000020: 8b41 fc3e 9fde 7a3f

decoder.3.weight f4 [10, 6, 3, 3]
-0.0021055106 0.030475682 0.060794078 -0.0128846895 -0.11075428 -0.05090529 0.11776912 -0.010720467
-0.057276443 -0.040363137 0.005742371 -0.15019129 0.008646505 0.056721944 0.013628583 -0.098521754
0.038095325 0.05599406 -0.13270062 -0.0017960032 -0.03347717 -0.07762412 -0.016417725 0.037032407
-0.017698027 -0.032096826 -0.014955526 0.0780933 -0.032562193 0.094618835 0.102513224 -0.17513141
-0.10845333 0.0979423 0.010782678 0.021080941 0.04634129 0.05411223 0.0740791 0.00998313
0.07785028 0.13601631 -0.14069243 -0.039711814 -0.0831921 -0.06593048 0.077872984 0.12962689
-0.19516549 -0.07917199 -0.13107659 0.047063347 0.0089618275 0.08514533 0.07740059 0.055872936
0.14770375 -0.13529724 -0.036167987 -0.20839667 0.068133615 -0.07016618 -0.055033933 0.0034999598
0.1327389 0.09967485 0.045912035 0.15567486 -0.0067392862 -0.05103421 -0.05945405 -0.09259122
0.06404873 0.12898768 -0.08828556 -0.024677118 0.15002753 0.118626915 -0.010716042 0.120849594
0.007519288 -0.040248804 0.05300934 -0.02723313 -0.04539004 0.023024822 -0.09527724 0.04030653
0.0929335 -0.024638025 -0.08886685 0.055183142 -0.06735942 -0.039235942 0.12604858 -0.061787758
-0.1676627 0.07990384 -0.15819411 0.08758026 0.0038264159 0.049831793 -0.17992999 -0.036897004
-0.19253519 0.01785535 -0.032903552 0.057708688 0.16602676 0.08113255 0.0037968534 0.03601876
0.042188887 0.035803568 -0.07150915 0.13069652 -0.012743708 0.002209537 0.031301998 -0.15422444
0.059082042 0.07420847 0.046747655 0.10505027 0.07858386 0.08283231 0.085355304 0.045777828
-0.027251607 -0.0205969 0.114969976 0.12674788 -0.11621473 -0.036233492 -0.06960128 -0.018086474
-0.037629697 -0.0016526971 0.10134324 -0.22654852 -0.13853452 -0.08414439 -0.062232655 -0.025057575
0.020972816 0.05601347 -0.0068820026 -0.0035011778 -0.11161576 0.09215143 -0.01689335 -0.091531165
-0.041415058 -0.04830686 -0.021533912 0.026804315 -0.20793667 0.048959382 -0.13876118 0.029788025
0.0806271 0.016638655 0.09141737 0.12584208 0.033149935 0.074308045 -0.08621147 -0.13847324
-0.008938887 0.021579498 0.08079521 -0.072394885 0.03647613 -0.0789313 0.027718937 0.022956884
0.05174412 0.12504035 -0.13545376 0.005457054 0.0058225365 -0.05781155 -0.02755551 0.024358822
-0.05929196 0.00034704298 -0.013285723 0.032069966 -0.09742497 0.09418893 -0.01759956 -0.055848993
-0.110882394 0.06979055 -0.0029444029 -0.037545398 0.16290548 0.026600635 0.0050907894 0.0879086
-0.13345909 0.052758947 0.0739326 0.03597991 0.08917901 -0.094064556 -0.14694598 0.11211164
0.08076343 -0.047404744 -0.064653754 0.025802098 -0.07873547 -0.111222915 0.08300545 0.0013045961
0.010254615 -0.066320464 0.033634156 0.028338434 0.008595588 0.08521381 -0.019335054 -0.084970005
-0.12577246 -0.09844897 -0.1309968 -0.12482537 -0.06857636 -0.124274865 -0.035717685 -0.013549887
0.014615479 -0.0279263 -0.11974652 0.051784508 -0.08271626 -0.06554736 -0.11499976 -0.040170938
-0.09167003 0.0056517473 0.061123073 -0.050846923 -0.16207625 -0.16641198 -0.16603431 -0.14587112
-0.13507034 -0.100390606 -0.18765724 -0.16989453 -0.11062646 -0.10185583 0.13212721 0.04938768
00000000: 9bfc 09bb 23a8 f93c 3603 793d 4e1a 53bc
00000010: 24d3 e2bd 1182 50bd f030 f13d e6a4 2fbc
00000020: b49a 6abd d153 25bd 802a bc3b bfcb 19be
00000030: 12aa 0d3c 4555 683d 6c4a 5f3c c6c5 c9bd
00000040: d809 1c3d 075a 653d ace2 07be de67 ebba
00000050: 5b1f 09bd 65f9 9ebd 777e 86bc 4baf 173d
00000060: 74fb 90bc f677 03bd 0608 75bc 61ef 9f3d
00000070: ef5f 05bd 85c7 c13d 74f2 d13d a655 33be
00000080: c81c debd f995 c83d d4a9 303c f0b1 ac3c
00000090: 5dd0 3d3d c9a4 5d3d c8b6 973d 4890 233c
000000a0: f86f 9f3d dc47 0b3e ad11 10be dba8 22bd
000000b0: 9f60 aabd 8f06 87bd df7b 9f3d e9bc 043e
000000c0: 76d9 47be ed24 a2bd f138 06be 7fc5 403d
000000d0: a1d4 123c ad60 ae3d 3384 9e3d 05db 643d
000000e0: a73f 173e 5c8b 0abe e224 14bd f065 55be
000000f0: a389 8b3d 49b3 8fbd 436b 61bd 955f 653b
00000100: b5ec 073e 5422 cc3d 420e 3c3d 3b69 1f3e
00000110: 3bd5 dcbb 3f09 51bd 1786 73bd 77a0 bdbd
00000120: fb2b 833d 5915 043e 0fcf b4bd ab27 cabc
00000130: d1a0 193e abf2 f23d 5692 2fbc fe7f f73d
00000140: 5c64 f63b eedb 24bd 5220 593d 0318 dfbc
00000150: e8ea 39bd 8d9e bc3c b720 c3bd 7618 253d
00000160: eb53 be3d afd5 c9bc d3ff b5bd b807 623d
00000170: bcf3 89bd deb5 20bd e112 013e 2915 7dbd
00000180: c5af 2bbe a0a4 a33d a3fd 21be 485d b33d
00000190: 9bc4 7a3b 6c1c 4c3d 913f 38be 5021 17bd
000001a0: f227 45be 6245 923c e0c5 06bd f25f 6c3d
000001b0: eb02 2a3e d328 a63d a1d4 783b 6888 133d
000001c0: 41ce 2c3d c3a6 123d 6473 92bd 4fd5 053e
000001d0: fcca 50bc e1cd 103b 8636 003d 03ed 1dbe
000001e0: 0300 723d 9cfa 973d 787a 3f3d 9924 d73d
000001f0: 93f0 a03d fca3 a93d c3ce ae3d 8881 3b3d
00000200: c33e dfbc d4ba a8bc 6175 eb3d 32ca 013e
00000210: fd01 eebd 9269 14bd 1e8b 8ebd 162a 94bc
00000220: 9921 1abd 509f d8ba 0b8d cf3d 56fc 67be
00000230: fedb 0dbe e553 acbd abe7 7ebd 8b45 cdbc
00000240: 2fcf ab3c 616e 653d 6c82 e1bb 0474 65bb
00000250: ce96 e4bd e4b9 bc3d ec63 8abc b174 bbbd
00000260: d6a2 29bd 6add 45bd e367 b0bc b994 db3c
00000270: 5aed 54be a289 483d 6917 0ebe 0406 f43c
00000280: d21f a53d ca4d 883c 0839 bb3d bfdc 003e
00000290: 3ac8 073d d12e 983d a48f b0bd eecb 0dbe
000002a0: 6974 12bc 7dc7 b03c f677 a53d c543 94bd
000002b0: ff67 153d bca6 a1bd d312 e33c 1310 bc3c
000002c0: a4f1 533d 940a 003e 64b4 0abe 16d1 b23b
000002d0: faca be3b cecb 6cbd 18bc e1bc 278c c73c
000002e0: 20dc 72bd 52f3 b539 5cac 59bc cc5b 033d
000002f0: be86 c7bd 20e6 c03d f42c 90bc eac1 64bd
00000300: 4f16 e3bd 59ee 8e3d e2f6 40bb 34c9 19bd
00000310: b2d0 263e 93e9 d93c a3d0 a63b 6d09 b43d
00000320: 80a9 08be c419 583d fa69 973d ac5f 133d
00000330: 7ca3 b63d eba4 c0bd 0279 16be ca9a e53d
00000340: 4c67 a53d 7a2b 42bd 3069 84bd ec5e d33c
00000350: 1040 a1bd d7c8 e3bd c3fe a93d fbfe aa3a
00000360: f902 283c 06d3 87bd f8c3 093d 0126 e83c
00000370: 82d4 0c3c 9484 ae3d 8c64 9ebc c104 aebd
00000380: 7fca 00be 9d9f c9bd 0624 06be 72a4 ffbd
00000390: c371 8cbd d283 febd b54c 12bd 5800 5ebc
000003a0: c375 6f3c b2c5 e4bc aa3d f5bd fe1b 543d
000003b0: 2467 a9bd b23d 86bd ff84 ebbd 488a 24bd
000003c0: 7fbd bbbd 4b32 b93b 305c 7a3d dd44 50bd
000003d0: 51f7 25be e767 2abe e604 2abe 3d5f 15be
000003e0: e14f 0abe 9799 cdbd 3829 40be d5f8 2dbe
000003f0: 2090 e2bd ca99 d0bd 5b4c 073e bc4a 4a3d

decoder.3.bias f4 [6]
2.0686205e-06 -2.7061293e-07 -8.774816e-08 2.9422204e-06 -1.5926663e-07 -3.4822307e-07
00000000: a1d2 0a36 c248 91b4 1070 bcb3 f672 4536
00000010: e102 2bb4 6af3 bab4

decoder.4.weight f4 [6]
0.8677302 1.0456412 0.9252073 1.0672935 0.9307677 0.8715777
00000000: 9123 5e3f 92d7 853f 63da 6c3f 139d 883f
00000010: cb46 6e3f b71f 5f3f

decoder.4.bias f4 [6]
-0.040883876 0.048221484 -0.08296757 0.22633828 -0.09456826 -0.044370156
00000000: da75 27bd e483 453d e7ea a9bd 39c5 673e
00000010: 01ad c1bd 7bbd 35bd

decoder.4.running_mean f4 [6]
0.102243535 0.014516937 0.019656299 -0.23210956 -0.02448214 0.044481594
00000000: 0f65 d13d 72d8 6d3c 3f06 a13c 21ae 6dbe
00000010: c58e c8bc 5532 363d

decoder.4.running_var f4 [6]
0.24677072 0.15566969 0.11613654 0.16435225 0.4385699 0.467925
00000000: 77b1 7c3e e067 1f3e ffd8 ed3d f54b 283e
00000010: 3c8c e03e de93 ef3e

decoder.6.weight f4 [6, 3, 3, 3]
-0.071164206 -0.16953139 0.017006554 -0.052984845 -0.032124955 0.020880712 -0.051626578 -0.046863973
-0.070456065 0.072441265 0.017153623 0.01466696 0.055106375 0.022931227 -0.085359536 -0.19421306
0.14941558 -0.18085258 -0.22138028 0.0025738506 -0.0710657 -0.12621573 0.0139912935 0.12080081
0.12323366 -0.02864564 -0.03399807 -0.023389524 -0.18553908 0.038294546 -0.16398865 0.12612505
0.13538592 -0.13353252 -0.14934036 0.07621958 -0.21551532 0.037410114 -0.24749893 -0.03697331
0.15369979 -0.047507476 -0.0799527 0.15012744 -0.14285447 -0.16951047 0.030353945 -0.0062850504
0.10723354 0.1566655 0.16578276 -0.068800636 0.14690633 -0.26696604 0.052029744 0.010923811
0.09970789 -0.086345635 -0.019727949 0.06751444 0.06354197 -0.20419593 0.01139823 -0.23033626
-0.1278291 0.11465598 0.0909587 0.0052581285 0.08024885 0.20105216 -0.06183963 -0.0968317
0.08633968 0.054992292 -0.15017313 -0.10726436 -0.01208125 -0.06002779 0.0033280102 -0.07938157
-0.23940815 0.033789713 -0.20723395 0.070892766 0.13544989 0.14138988 0.041562524 -0.046763085
0.35965133 0.1107432 0.032269895 0.060698174 0.2699371 0.0999653 0.14496154 0.08846378
0.012034704 0.14913884 -0.08667937 -0.06535892 0.098368555 -0.16599861 0.006883223 0.12116496
0.15157913 0.16361247 0.050208963 0.23518753 0.11033936 -0.07117126 -0.028839383 -0.14310962
-0.09437622 0.12808251 0.104971066 -0.07082872 0.054076724 -0.11663236 -0.010425748 -0.22022125
0.07841241 -0.1123153 0.10411995 -0.08213634 -0.070577994 -0.025195127 -0.07650747 0.056168113
0.13013901 0.004038617 -0.09610973 -0.0797327 0.041835416 -0.15584405 -0.19164908 0.01819057
-0.16994943 -0.091828845 -0.21366699 -0.0031512154 0.12697978 -0.07258507 0.065078534 -0.0617027
0.024837436 -0.041666128 0.05932507 0.0076861703 -0.0023312084 -0.09059214 -0.23759346 -0.087408535
-0.08258563 -0.10645936 -0.0128823 -0.05380567 -0.034794133 0.037593205 0.029074248 -0.17991832
0.04587662 0.09307925
00000000: 8abe 91bd a399 2dbe 5451 8b3c a306 59bd
00000010: 7595 03bd 070e ab3c 6476 53bd 70f4 3fbd
00000020: 454b 90bd 165c 943d c185 8c3c b04d 703c
00000030: 39b7 613d 45da bb3c fbd0 aebd cadf 46be
00000040: 6600 193e 6b31 39be 83b1 62be 0cae 283b
00000050: e58a 91bd b23e 01be bd3b 653c 6a66 f73d
00000060: ee61 fc3d 43aa eabc 8f41 0bbd 639b bfbc
00000070: f5fd 3dbe beda 1c3d a4ec 27be ed26 013e
00000080: 9ba2 0a3e c0bc 08be aeec 18be 0319 9c3d
00000090: 0cb0 5cbe 593b 193d 5c70 7dbe 5371 17bd
000000a0: 7a63 1d3e 3397 42bd 3ebe a3bd 02bb 193e
000000b0: 7148 12be 2794 2dbe d6a8 f83c d3f2 cdbb
000000c0: 429d db3d ec6c 203e f5c2 293e 59e7 8cbd
000000d0: 9d6e 163e c6af 88be 241d 553d c9f9 323c
000000e0: a633 cc3d fbd5 b0bd 829c a1bc 0345 8a3d
000000f0: 4b22 823d bd18 51be a4bf 3a3c 45dd 6bbe
00000100: a2e5 02be c1d0 ea3d 8e48 ba3d 614c ac3b
00000110: 8259 a43d 9ee0 4d3e 8d4b 7dbd b34f c6bd
00000120: dcd2 b03d 993f 613d fcc6 19be 6bad dbbd
00000130: 6ff0 45bc b3df 75bd bf1a 5a3b ce92 a2bd
00000140: 6927 75be 1567 0a3d 2335 54be 3a30 913d
00000150: 60b3 0a3e 82c8 103e 773d 2a3d a68a 3fbd
00000160: 3824 b83e 55cd e23d 702d 043d a69e 783d
00000170: 3235 8a3e 9bba cc3d cc70 143e 802c b53d
00000180: 352d 453c dab7 183e f484 b1bd e6da 85bd
00000190: 7475 c93d 8afb 29be a98c e13b 5625 f83d
000001a0: 8f37 1b3e 078a 273e eaa7 4d3d 00d5 703e
000001b0: 9af9 e13d 3dc2 91bd 9240 ecbc 548b 12be
000001c0: 5248 c1bd 1028 033e 12fb d63d a60e 91bd
000001d0: 8e7f 5d3d f2dc eebd c2d0 2abc ae81 61be
000001e0: b096 a03d 9005 e6bd d73c d53d 1937 a8bd
000001f0: 328b 90bd 0366 cebc f3af 9cbd 8910 663d
00000200: 2943 053e 6056 843b 2ed5 c4bd e64a a3bd
00000210: 9d5b 2b3d 9595 1fbe a83f 44be 6404 953c
00000220: 3907 2ebe c310 bcbd 85cb 5abe 9f84 4ebb
00000230: fd06 023e 7ba7 94bd e547 853d f8bb 7cbd
00000240: e177 cb3c 1aaa 2abd d8fe 723d 45dc fb3b
00000250: 30c7 18bb 5f88 b9bd b34b 73be 3f03 b3bd
00000260: a822 a9bd 5d07 dabd 4810 53bc 5663 5cbd
00000270: 4b84 0ebd 55fb 193d 1e2d ee3c 823c 38be
00000280: 1fe9 3b3d 55a0 be3d

decoder.6.bias f4 [3]
1.03176735e-05 1.24057815e-05 7.965422e-06
00000000: 121a 2d37 6d22 5037 3aa3 0537

decoder.7.weight f4 [3]
0.9809405 1.004896 0.97575337
00000000: eb1e 7b3f 6fa0 803f f9ca 793f

decoder.7.bias f4 [3]
0.24861126 0.25312293 0.1942695
00000000: f393 7e3e 5499 813e 95ee 463e

decoder.7.running_mean f4 [3]
0.014120505 0.01562784 0.015315256
00000000: b159 673c f505 803c d7ec 7a3c

decoder.7.running_var f4 [3]
0.123074435 0.31343886 0.25122586
00000000: 730e fc3d 0f7b a03e ada0 803e
