Assignment3/params/net.pth (torch, 49145 bytes, 51 tensors)

conv1.0.weight f4 [3, 1, 3, 3]
0.28752926 0.21862629 0.02840814 -0.2444456 0.102155566 -0.08438885 -0.25218225 -0.31724286
-0.0475111 -0.30653578 0.23093238 0.14168802 0.27411154 0.056788832 -0.10965407 -0.0778313
0.2989683 -0.02163276 0.16943493 0.2411218 -0.14644921 -0.11424844 -0.008714646 -0.028694838
-0.1693676 -0.035838097 0.031997204
00000000: 0937 933e 92df 5f3e 30b8 e83c f34f 7abe
00000010: f036 d13d 10d4 acbd 081e 81be a86d a2be
00000020: 009b 42bd 42f2 9cbe 8a79 6c3e aa16 113e
00000030: 5958 8c3e 689b 683d 5092 e0bd 0466 9fbd
00000040: 5f12 993e 3037 b1bc 5a80 2d3e a2e8 763e
00000050: c8f6 15be 16fb e9bd e0c7 0ebc 7011 ebbc
00000060: b36e 2dbe f8ca 12bd 800f 033d

conv1.0.bias f4 [3]
-0.10390358 -0.18530095 0.28833082
00000000: 66cb d4bd 88bf 3dbe 19a0 933e

conv1.1.weight f4 [3]
1.0 1.0 1.0
00000000: 0000 803f 0000 803f 0000 803f

conv1.1.bias f4 [3]
0.0 0.0 0.0
00000000: 0000 0000 0000 0000 0000 0000

conv1.1.running_mean f4 [3]
-0.14545804 -0.12080493 0.28007308
00000000: f4f2 14be 9368 f7bd bd65 8f3e

conv1.1.running_var f4 [3]
0.08634092 0.076691605 0.02842972
00000000: 82d3 b03d 7d10 9d3d 72e5 e83c

conv2.0.weight f4 [6, 3, 3, 3]
-0.061399788 0.040530473 -0.18787941 0.1104617 -0.09192526 0.0038974583 0.13871916 0.11503787
0.1336896 0.024091437 -0.1269855 0.016413033 -0.13839561 0.020414904 -0.07668225 -0.083437726
-0.0007815361 -0.018602252 0.122269735 -0.11695513 0.05030358 0.12128876 0.11637528 -0.018712357
-0.14025784 0.06751548 -0.14292066 0.10931216 0.07628505 -0.18969052 0.042983845 -0.14345495
-0.053840294 -0.12529442 0.062061056 -0.1117881 -0.13671347 0.14610927 -0.08271134 0.15067072
-0.12613803 0.1907755 -0.053235114 0.055945992 0.019842103 0.010101542 0.0056993514 -0.029343829
-0.09348446 -0.011290178 -0.134143 0.11397304 0.014437228 0.093462184 0.019695476 -0.049726874
-0.12183156 -0.068900555 -0.13132897 0.12613578 0.14539443 -0.13523413 -0.13255654 -0.13459253
-0.04176694 0.12731795 -0.1599516 -0.11479582 -0.17932773 -0.07728337 -0.018991366 0.1372732
0.13773279 -0.013515472 -0.18700516 0.06178747 -0.15790132 0.13099234 0.056329504 -0.11154028
0.10676812 -0.14970146 -0.030271187 -0.14393438 0.16463457 0.18842109 0.16430576 -0.08092162
-0.031463355 0.036439493 0.064179435 -0.08416034 -0.08579777 -0.090211324 -0.017394394 0.14767154
-0.09195802 0.009830207 0.18182375 -0.029022142 0.16578485 0.16854204 -0.082818665 0.025962919
0.061144218 -0.11511781 0.096790746 0.110997126 -0.029052794 -0.07831279 -0.12324179 0.030151993
-0.013075769 0.07330917 0.07525115 0.043436423 -0.033008486 0.18858926 0.11295064 -0.1696852
0.040808707 0.17879067 0.18167682 -0.08033886 0.08516963 0.014205098 -0.043149516 -0.12741636
-0.13461436 -0.01352717 0.13464658 -0.16863814 0.009530172 -0.13957347 0.14768432 0.14874412
0.032676637 -0.17025836 -0.002511531 -0.16122285 -0.035125613 0.09451498 0.09093918 0.113914475
0.06364934 0.12948795 0.16239436 -0.17721704 -0.10959328 -0.04638517 -0.023268044 -0.046805575
-0.09650668 0.012212783 0.042200252 -0.020345598 0.11870356 0.11079125 -0.049348325 0.1918978
0.111000136 -0.18731366
00000000: 587e 7bbd 4803 263d 7663 40be be39 e23d
00000010: 5043 bcbd 806c 7f3b 650c 0e3e fa98 eb3d
00000020: ede5 083e 685b c53c 7d08 02be a074 863c
00000030: 94b7 0dbe 283d a73c 950b 9dbd 66e1 aabd
00000040: 00e0 4cba c063 98bc 8e68 fa3d 2c86 efbd
00000050: 200b 4e3d 3e66 f83d 2a56 ee3d a84a 99bc
00000060: c09f 0fbe 8e45 8a3d cb59 12be 0edf df3d
00000070: 563b 9c3d 3b3e 42be d40f 303d dbe5 12be
00000080: a487 5cbd 2e4d 00be bc33 7e3d 29f1 e4bd
00000090: 9efe 0bbe ab9d 153e 9064 a9bd 6d49 1a3e
000000a0: 542a 01be a75a 433e 100d 5abd a027 653d
000000b0: e88b a23c f080 253c a0c1 ba3b 7862 f0bc
000000c0: c874 bfbd 70fa 38bc c85c 09be b26a e93d
000000d0: 208a 6c3c 1a69 bf3d 6858 a13c 68ae 4bbd
000000e0: d382 f9bd bc1b 8dbd 1a7b 06be bd29 013e
000000f0: 47e2 143e d17a 0abe e7bc 07be a0d2 09be
00000100: d013 2bbd a35f 023e 5aca 23be 121a ebbd
00000110: b0a1 37be be46 9ebd c893 9bbc 5991 0c3e
00000120: d309 0d3e 0070 5dbc 487e 3fbe dc14 7d3d
00000130: e2b0 21be db22 063e c4b9 663d 3b6f e4bd
00000140: 3ea9 da3d 574b 19be 48fb f7bc 8963 13be
00000150: f795 283e 75f1 403e c53f 283e 3cba a5bd
00000160: b8df 00bd 9441 153d 8270 833d 425c acbd
00000170: beb6 afbd b7c0 b8bd b07e 8ebc 3537 173e
00000180: 7d54 bcbd e00e 213c 0130 3a3e d8bf edbc
00000190: 81c3 293e 4996 2c3e d59c a9bd 30b0 d43c
000001a0: 5c72 7a3d e3c2 ebbd 3a3a c63d 7652 e33d
000001b0: 2000 eebc 7562 a0bd 3166 fcbd 5001 f73c
000001c0: c03b 56bc 1e23 963d 461d 9a3d 64ea 313d
000001d0: e833 07bd 8b1d 413e aa52 e73d f5c1 2dbe
000001e0: 0827 273d e714 373e 7d09 3a3e b388 a4bd
000001f0: 6a6d ae3d 80bc 683c 8cbd 30bd 6f79 02be
00000200: 59d8 09be 10a1 5dbc cbe0 093e 7aaf 2cbe
00000210: 7024 1c3c 59ec 0ebe 8f3a 173e 6150 183e
00000220: f0d7 053d 3558 2ebe 8098 24bb 9a17 25be
00000230: e0df 0fbd 1291 c13d 523e ba3d fe4b e93d
00000240: 965a 823d 7d98 043e b54a 263e 6278 35be
00000250: 7172 e0bd 60fe 3dbd a09c bebc 34b7 3fbd
00000260: 4ba5 c5bd 2018 483c 2cda 2c3d d0ab a6bc
00000270: da1a f33d 86e6 e23d 7821 4abd db80 443e
00000280: 0a54 e33d 27cf 3fbe

conv2.0.bias f4 [6]
-0.16338594 0.14987959 0.16495179 0.00076287985 -0.04883352 -0.022486836
00000000: a54e 27be 097a 193e 1fe9 283e 00fc 473a
00000010: a805 48bd 5036 b8bc

conv2.1.weight f4 [6]
1.0 1.0 1.0 1.0 1.0 1.0
00000000: 0000 803f 0000 803f 0000 803f 0000 803f
00000010: 0000 803f 0000 803f

conv2.1.bias f4 [6]
0.0 0.0 0.0 0.0 0.0 0.0
00000000: 0000 0000 0000 0000 0000 0000 0000 0000
00000010: 0000 0000 0000 0000

conv2.1.running_mean f4 [6]
-0.21587546 0.07657491 -0.12669912 0.24130294 0.02982614 0.055579375
00000000: 750e 5dbe 4ed3 9c3d 6abd 01be 1e18 773e
00000010: f355 f43c 33a7 633d

conv2.1.running_var f4 [6]
0.06973841 0.07753411 0.17198889 0.09787521 0.12533176 0.0826623
00000000: 03d3 8e3d 34ca 9e3d db1d 303e cc72 c83d
00000010: f856 003e da4a a93d

conv3.0.weight f4 [12, 6, 3, 3]
0.04049751 0.04585287 -0.043332897 0.026915267 -0.064154744 0.010101765 0.0023079962 -0.10193257
-0.07103995 -0.1262799 0.039494902 0.010300115 0.011728868 0.1133748 -0.122734256 -0.030685984
0.020091593 0.0041713417 -0.07502289 0.0179376 -0.081216075 0.07232392 0.12700698 -0.017254055
0.03002043 -0.10540806 0.10081068 -0.033858858 -0.09904088 -0.10155767 -0.04590235 -0.051647484
-0.023285724 -0.04572259 -0.085267425 0.047092795 0.13444111 -0.13523394 0.10454543 -0.035805702
0.1275791 -0.05974517 0.015909553 -0.11302611 -0.12359081 0.10637283 0.13483804 0.02204813
0.063655704 -0.06228745 0.06539047 -0.069262825 0.13431388 -0.073499724 -0.092399 0.016953275
0.053561375 -0.09793589 -0.014280699 -0.033613205 0.12390217 0.1326069 -0.09887187 -0.04650507
0.025119722 -0.06403223 -0.07005037 0.07522711 0.0005865991 -0.0877162 -0.12524769 0.07226567
0.06254995 -0.048515506 0.06457096 0.07890032 0.02646248 -0.003256902 -0.009083629 0.13498658
-0.0067514926 0.039240733 0.069815665 -0.0668325 -0.09022378 0.041787446 -0.12103609 -0.061077982
0.026784971 0.05177708 -0.070208706 -0.12043697 -0.1169917 -0.09214336 -0.105062105 0.075968444
-0.12813342 -0.023576662 -0.013197884 -5.310774e-05 -0.03511469 0.068892434 -0.1312608 0.122246325
-0.01939623 0.12240869 0.12732929 -0.0060831606 0.058967933 0.11088145 0.10681772 -0.056796
0.10775094 0.12316576 0.033877954 -0.013904043 -0.009393051 -0.021309413 0.073548034 0.054945275
-0.11567516 -0.07796567 0.03280288 -0.059452422 0.10117051 -0.1255326 -0.08533162 -0.03842564
0.07389918 -0.10507114 -0.014911406 -0.049251467 -0.08399397 -0.06749772 0.02464351 -0.0130172
0.013545677 0.108691186 0.079770386 0.09085481 -0.06408056 -0.0076949745 -0.014682472 0.1323219
0.12699598 0.07811412 -0.027312547 -0.06314497 0.009937048 0.0021274686 0.045336977 0.036521435
-0.019197017 0.09043057 0.06642085 0.07374245 0.12555656 0.00032393634 0.11039658 0.0018243492
-0.09118886 -0.0032546967 0.117605 0.08599056 -0.07689643 0.06448589 0.09253542 0.12551442
-0.00609228 -0.07139076 0.11398715 -0.11910531 -0.020775631 0.0005194843 0.06323135 0.04923801
-0.102493376 0.06389631 -0.12201462 0.10959126 -0.073939644 -0.008667976 0.13560903 0.04911314
-0.062772065 0.014921144 0.07734622 -0.025986373 -0.034732476 -0.051139645 0.059940547 -0.11170027
0.053805724 0.11436632 0.0822971 -0.07794734 0.09964228 0.1344912 0.017303124 0.12479666
-0.06977198 -0.08529247 0.10679501 0.0441577 -0.1314939 -0.12124742 0.12258464 0.10403715
-0.07162459 -0.06947542 0.11035834 0.071949914 0.086226225 0.13534772 0.12133083 -0.11529794
-0.01905553 0.1258215 0.014779672 0.0046660155 -0.0029892027 0.08841947 0.0640537 -0.13350753
0.13487405 0.08758749 0.086848974 -0.06430981 0.06618649 -0.12037326 0.060403377 0.038700804
0.06304632 -0.032527782 0.114213556 0.09761277 -0.08475079 -0.10337646 0.05600092 0.07593042
0.021212012 0.0064691603 0.055063322 -0.027858995 0.012657955 -0.067249134 0.130467 0.11181657
-0.075935125 -0.05690696 0.021505117 0.03604287 0.0163721 -0.061136983 -0.08828738 0.021151528
00000000: b8e0 253d 38d0 3b3d d67d 31bd 687d dc3c
00000010: 9063 83bd e081 253c c041 173b 06c2 d0bd
00000020: 657d 91bd 854f 01be 68c5 213d d0c1 283c
00000030: 702a 403c 0c31 e83d 195c fbbd 2c61 fbbc
00000040: 2097 a43c c0af 883b 9aa5 99bd e0f1 923c
00000050: 9d54 a6bd 901e 943d 1e0e 023e 6058 8dbc
00000060: 68ed f53c 2ee0 d7bd d475 ce3d 96af 0abd
00000070: f2d5 cabd 78fd cfbd 1a04 3cbd 508c 53bd
00000080: b4c1 bebc 9c47 3bbd b0a0 aebd 60e4 403d
00000090: eeaa 093e c47a 0abe ea1b d63d 00a9 12bd
000000a0: 18a4 023e 5ab7 74bd c054 823c 3c7a e7bd
000000b0: 2e1d fdbd 00da d93d fc12 0a3e 489e b43c
000000c0: ec5d 823d 2021 7fbd 70eb 853d abd9 8dbd
000000d0: 9489 093e 0687 96bd b03b bdbd 98e1 8a3c
000000e0: 2c63 5b3d 9d92 c8bd 98f9 69bc 00ae 09bd
000000f0: 6cc0 fd3d 1aca 073e 567d cabd 1a7c 3ebd
00000100: e0c7 cd3c 5423 83bd 9276 8fbd ac10 9a3d
00000110: 00c6 193a 8da4 b3bd ee40 00be 0600 943d
00000120: 301a 803d 32b8 46bd c83d 843d 7e96 a13d
00000130: d8c7 d83c c071 55bb 80d3 14bc ec39 0a3e
00000140: a03b ddbb e4ba 203d 84fb 8e3d 7adf 88bd
00000150: 3fc7 b8bd 5029 2b3d c5e1 f7bd e82c 7abd
00000160: 286c db3c 3414 543d 95c9 8fbd a8a7 f6bd
00000170: 5899 efbd a8b5 bcbd cd2a d7bd 5895 9b3d
00000180: 6835 03be d823 c1bc f03b 58bc 00c0 5eb8
00000190: 6cd4 0fbd 7a17 8d3d 3b69 06be 485c fa3d
000001a0: d8e4 9ebc 68b1 fa3d 9c62 023e 4055 c7bb
000001b0: 5c88 713d d015 e33d 40c3 da3d eca2 68bd
000001c0: 86ac dc3d 543e fc3d 9cc3 0a3d c8cd 63bc
000001d0: 50e5 19bc 1491 aebc 5aa0 963d 4c0e 613d
000001e0: 19e7 ecbd 77ac 9fbd 505c 063d 6284 73bd
000001f0: 7c32 cf3d 9e8b 00be 58c2 aebd 3464 1dbd
00000200: 7458 973d 8a2f d7bd f84e 74bc e8bb 49bd
00000210: 0805 acbd 3f3c 8abd 30e1 c93c 1846 55bc
00000220: b0ee 5d3c 7c99 de3d a85e a33d 1612 ba3d
00000230: ab3c 83bd 2026 fcbb c08e 70bc 647f 073e
00000240: 3c0b 023e 4cfa 9f3d 90be dfbc 2652 81bd
00000250: 00cf 223c 006d 0b3b 44b3 393d 8097 153d
00000260: 1043 9dbc aa33 b93d a807 883d 4806 973d
00000270: e691 003e 00d6 a939 9a17 e23d 001f ef3a
00000280: 3ac1 babd c04c 55bb e4da f03d d21b b03d
00000290: e07b 9dbd 2e11 843d 3683 bd3d da86 003e
000002a0: c0a1 c7bb 5235 92bd 1872 e93d 7ced f3bd
000002b0: a831 aabc 002e 083a 707f 813d ccad 493d
000002c0: 0ce8 d1bd 12dc 823d cde2 f9bd 6271 e03d
000002d0: ab6d 97bd 2004 0ebc 18dd 0a3e dc2a 493d
000002e0: a48e 80bd d077 743c b267 9e3d 60e1 d4bc
000002f0: a443 0ebd ce77 51bd 3884 753d 1cc3 e4bd
00000300: 6463 5c3d e438 ea3d 628b a83d dba2 9fbd
00000310: 4011 cc3d 10b8 093e 48bf 8d3c 6495 ff3d
00000320: 9de4 8ebd d2ad aebd 58b7 da3d b4de 343d
00000330: 56a6 06be 9150 f8bd a80d fb3d 6e11 d53d
00000340: eaaf 92bd 2149 8ebd 8e03 e23d 7a5a 933d
00000350: 6097 b03d 9898 0a3e 4c7c f83d 5421 ecbd
00000360: 581a 9cbc 5ad7 003e 7026 723c 60e5 983b
00000370: 80e6 43bb 4415 b53d 962e 833d 33b6 08be
00000380: 6c1c 0a3e 1261 b33d e0dd b13d ddb4 83bd
00000390: c88c 873d 4186 f6bd 8869 773d bc84 1e3d
000003a0: 6e1e 813d da3b 05bd cce8 e93d 34e9 c73d
000003b0: d291 adbd 0ab7 d3bd 3861 653d 6881 9b3d
000003c0: d0c4 ad3c 40fb d33b 148a 613d 8c38 e4bc
000003d0: 5063 4f3c eab9 89bd 2499 053e 1600 e53d
000003e0: e083 9bbd 4617 69bd 802b b03c b0a1 133d
000003f0: c81e 863c c66a 7abd 04d0 b4bd f845 ad3c

conv3.0.bias f4 [12]
0.12932158 -0.07369067 -0.08513323 -0.12840624 -0.0029891431 -0.06946927 0.052336663 -0.01675269
0.089993194 0.050771102 0.06067954 -0.08451837
00000000: e06c 043e 22eb 96bd 555a aebd ed7c 03be
00000010: 80e5 43bb e845 8ebd f85e 563d f03c 89bc
00000020: 5a4e b83d 5cf5 4f3d 1c8b 783d f817 adbd

conv3.1.weight f4 [12]
1.0 1.0 1.0 1.0 1.0 1.0 1.0 1.0
1.0 1.0 1.0 1.0
00000000: 0000 803f 0000 803f 0000 803f 0000 803f
00000010: 0000 803f 0000 803f 0000 803f 0000 803f
00000020: 0000 803f 0000 803f 0000 803f 0000 803f

conv3.1.bias f4 [12]
0.0 0.0 0.0 0.0 0.0 0.0 0.0 0.0
0.0 0.0 0.0 0.0
00000000: 0000 0000 0000 0000 0000 0000 0000 0000
00000010: 0000 0000 0000 0000 0000 0000 0000 0000
00000020: 0000 0000 0000 0000 0000 0000 0000 0000

conv3.1.running_mean f4 [12]
0.062269974 -0.18357112 0.15520862 0.2224568 0.23216148 0.023247177 -0.22140376 0.25062758
0.10059632 0.13043432 0.046006225 -0.03231375
00000000: cd0e 7f3d 11fa 3bbe 02ef 1e3e b7cb 633e
00000010: bdbb 6d3e dd70 be3c abb7 62be 4252 803e
00000020: 7205 ce3d 9390 053e 0671 3c3d 6c5b 04bd

conv3.1.running_var f4 [12]
0.09253094 0.13255781 0.108967505 0.14360899 0.07979706 0.09320821 0.08138069 0.112104736
0.08381613 0.11955895 0.060004875 0.087865435
00000000: dd80 bd3d 3cbd 073e 5b2a df3d 3c0e 133e
00000010: a46c a33d f2e3 be3d ebaa a63d 2b97 e53d
00000020: cba7 ab3d 53db f43d acc7 753d cbf2 b33d

conv4.0.weight f4 [24, 12, 3, 3]
0.0052568465 -0.0009923056 -0.014019892 -0.00653442 0.075361826 -0.064575955 -0.049077652 0.028468542
0.05492901 0.021294847 -0.028237939 0.06286987 0.03826783 -0.06853342 -0.08103099 -0.07136237
0.011186875 -0.033855718 -0.07649487 -0.07083309 -0.094500035 -0.05603607 0.07921947 0.08953447
-0.059516624 0.038864397 -0.08344228 -0.05286388 0.07267659 -0.048434053 -0.06507176 -0.050123375
-0.030572824 -0.04305409 0.00527706 -0.024209216 -0.069533065 -0.041130118 0.07846882 -0.054920595
0.078350894 0.08571295 0.05964441 0.090073325 -0.0641142 -0.017946586 0.040453024 -0.036116924
-0.029131986 -0.054170832 0.042464666 0.04602883 -0.043797337 -0.06876449 0.0034492612 -0.040048525
0.058573686 -0.013472058 -0.07946043 -0.09018499 -0.08059944 -0.0813339 0.08891731 -0.08090754
-0.054019425 0.021741278 -0.013957955 -0.004185416 0.00040587783 0.084202416 -0.0589392 0.0035510734
-0.030367881 0.030323066 -0.049601596 0.072051086 -0.048213147 -0.026012532 -0.028388321 -0.05515952
-0.077264056 0.0748016 -0.021433473 -0.032238856 -0.022125266 -0.074630074 -0.038762692 0.049188577
-0.02056104 0.07298834 -0.09259997 0.09387321 -0.07887526 -0.070907466 -0.06590409 -0.02253259
-0.043826263 0.018561281 0.05567964 0.0143371 0.079431675 0.07563976 -0.052623093 0.044287182
0.00047332793 0.046669774 -0.07633204 0.005698137 -0.089602485 0.07213504 0.0009112954 -0.04063728
-0.038953155 0.06694489 -0.055588488 0.0949552 0.0035644025 0.07649564 -0.0865744 0.054547988
0.045875378 -0.057385202 0.031899728 -0.050913353 0.08991178 0.03291566 -0.0016460568 0.046828218
-0.0005283654 -0.09275618 0.024394572 -0.033779263 -0.017309316 -0.02827707 -0.06863566 -0.026038378
0.08673919 0.03354896 0.08463513 -0.042060327 -0.04743256 -0.014653936 -0.02395165 0.039798357
0.06590503 -0.07522507 -0.037461843 0.06494116 0.0035364926 0.059410684 -0.05934658 0.031479515
-0.016545348 0.04877145 -0.078234226 0.09083284 0.088286005 0.050797842 -0.020219408 -0.06134254
0.02434893 0.038746573 0.014101133 0.05526843 -0.081136174 -0.036739025 -0.082430586 0.04048104
-0.08799528 0.0054486543 -0.042381343 0.075998805 -0.06819169 -0.0055494457 -0.083328955 0.02182386
0.0837143 -0.054248042 0.010527633 0.08807292 -0.09614194 0.0074810684 0.0898594 0.011786632
-0.059389964 0.07085811 -0.075938165 0.010727756 -0.016107008 -0.02519586 -0.0034371018 -0.05500237
-0.0811039 0.044496097 0.008234099 0.031274535 -0.005835384 0.08628067 -0.0316524 0.07961791
-0.07763483 -0.063314565 -0.066809006 0.08248166 0.007723786 0.025805771 0.02581013 0.08818898
-0.03771909 -0.020383067 0.041938327 -0.08770061 -0.014876828 0.06714476 -0.039616127 -0.03009884
0.054074056 0.018853948 0.08526773 0.0004324615 -0.055219043 0.09378686 0.022330672 0.051152416
0.08891591 0.057818927 0.04536774 -0.01980859 -0.08591552 0.019481495 0.08365079 0.023408167
-0.04771386 -0.015915282 0.035489492 -0.03727979 -0.061016217 0.045817323 -0.01531902 0.020647228
0.06522999 0.052602284 0.019604743 0.035555445 -0.06040203 0.09621961 0.062621586 -0.04094728
0.07138119 -0.02624178 0.0038915128 -0.074658066 0.043077625 -0.021352395 -0.002975382 0.08042214
00000000: a041 ac3b 4010 82ba b0b3 65bc b01e d6bb
00000010: 4d57 9a3d 6640 84bd a605 49bd dc36 e93c
00000020: 3efd 603d 8872 ae3c 4053 e7bc ebc1 803d
00000030: babe 1c3d 405b 8cbd 93f3 a5bd 6f26 92bd
00000040: 2849 373c 4bac 0abd 58a9 9cbd f010 91bd
00000050: 3c89 c1bd 1486 65bd d13d a23d d95d b73d
00000060: b4c7 73bd 4630 1f3d c9e3 aabd cc87 58bd
00000070: 77d7 943d c962 46bd 5844 85bd 2b4e 4dbd
00000080: dc73 fabc 7c59 30bd 30eb ac3b 6852 c6bc
00000090: 5a67 8ebd 0e78 28bd 43b4 a03d 6bf4 60bd
000000a0: 6f76 a03d 458a af3d b24d 743d 5d78 b83d
000000b0: 4e4e 83bd b804 93bc 12b2 253d 57ef 13bd
000000c0: 34a6 eebc 3ce2 5dbd 6eef 2d3d ba88 3c3d
000000d0: d664 33bd 66d4 8cbd 000d 623b ec09 24bd
000000e0: f6ea 6f3d e8b9 5cbc 26bc a2bd e8b2 b8bd
000000f0: 5211 a5bd 6392 a6bd 471a b63d dab2 a5bd
00000100: 7943 5dbd c41a b23c e8af 64bc d025 89bb
00000110: 00cc d439 5172 ac3d 3b6a 71bd 20b9 683b
00000120: 10c6 f8bc 1468 f83c 0b2b 4bbd 858f 933d
00000130: 267b 45bd 3c18 d5bc a08e e8bc f3ee 61bd
00000140: 9e3c 9ebd 9531 993d 4095 afbc e40c 04bd
00000150: 0c40 b5bc a7d7 98bd a1c5 1ebd f679 493d
00000160: a06f a8bc e97a 953d 0ea5 bdbd 9940 c03d
00000170: 5a89 a1bd ef37 91bd b9f8 86bd 4496 b8bc
00000180: 2b83 33bd d40d 983c 5610 643d 28e6 6a3c
00000190: 13ad a23d 05e9 9a3d 508b 57bd 7a66 353d
000001a0: 0029 f839 ce28 3f3d f953 9cbd 70b7 ba3b
000001b0: 8281 b7bd 89bb 933d 00e4 6e3a 4773 26bd
000001c0: 588d 1fbd 671a 893d c1b0 63bd df77 c23d
000001d0: c098 693b bfa9 9c3d eb4d b1bd b66d 5f3d
000001e0: d2e7 3b3d bf0c 6bbd 4aa9 023d 858a 50bd
000001f0: ab23 b83d 92d2 063d 80c0 d7ba f2ce 3f3d
00000200: 0082 0aba f4f6 bdbd 20d7 c73c 205c 0abd
00000210: 44cc 8dbc 50a5 e7bc da90 8cbd 704e d5bc
00000220: 51a4 b13d a26a 093d 2f55 ad3d 7347 2cbd
00000230: a548 42bd 1017 70bc 4036 c4bc 9a03 233d
00000240: 37f9 863d 9a0f 9abd 9771 19bd dfff 843d
00000250: 80c4 673b 9e58 733d 6615 73bd aaf0 003d
00000260: 1c8a 87bc 92c4 473d 4439 a0bd 9106 ba3d
00000270: 4bcf b43d 6611 503d 2ca3 a5bc 5142 7bbd
00000280: 6877 c73c bab4 1e3d 7008 673c 2661 623d
00000290: b92a a6bd a97b 16bd 5ed1 a8bd 72cf 253d
000002a0: df36 b4bd a08a b23b 0f98 2dbd 43a5 9b3d
000002b0: 16a8 8bbd 20d8 b5bb 5fa8 aabd f4c7 b23c
000002c0: 6772 ab3d 3233 5ebd 187c 2c3c 935f b43d
000002d0: 11e6 c4bd c023 f53b 3508 b83d b81c 413c
000002e0: e442 73bd 0f1e 913d 7885 9bbd 78c3 2f3c
000002f0: d8f2 83bc 8c67 cebc 0041 61bb 2a4a 61bd
00000300: cd19 a6bd 8a41 363d 50e8 063c ba19 003d
00000310: c036 bfbb ebb3 b03d f2a5 01bd b70e a33d
00000320: 02ff 9ebd 11ab 81bd 29d3 88bd 25ec a83d
00000330: d017 fd3b a066 d33c c46f d33c 6d9c b43d
00000340: 557f 1abd 64fa a6bc 86c7 2b3d 619c b3bd
00000350: f0bd 73bc 3183 893d 8544 22bd d891 f6bc
00000360: c27c 5d3d 9873 9a3c d9a0 ae3d 00bc e239
00000370: 5d2d 62bd 5313 c03d d0ee b63c 3285 513d
00000380: 8b19 b63d 8ad3 6c3d 86d3 393d a045 a2bc
00000390: 7af4 afbd a897 9f3c 1b51 ab3d 7cc2 bf3c
000003a0: 9c6f 43bd c460 82bc 6e5d 113d b1b2 18bd
000003b0: 24ec 79bd f2aa 3b3d a0fc 7abc 6024 a93c
000003c0: 4d97 853d 7e75 573d 209a a03c 96a2 113d
000003d0: 1e68 77bd c90e c53d bf3f 803d 56b8 27bd
000003e0: 4d30 923d 00f9 d6bc c008 7f3b 54e6 98bd
000003f0: 2a72 303d 38eb aebc a0fe 42bb 5db4 a43d

conv4.0.bias f4 [24]
0.037110828 0.023943111 -0.024165072 -0.050358117 -0.05627202 -0.027645841 -0.08191135 0.04227639
-0.02488938 -0.086683385 -0.035677724 -0.013118692 0.025473118 0.056224875 -0.07735581 -0.026688151
-0.036026474 0.087557815 0.059839867 0.03633707 0.08164843 -0.02872108 -0.05615036 -0.090754
00000000: 8601 183d 5824 c43c d4f5 c5bc 5044 4ebd
00000010: 7d7d 66bd 8879 e2bc 23c1 a7bd 022a 2d3d
00000020: d0e4 cbbc 0f87 b1bd ce22 12bd c8ef 56bc
00000030: 00ad d03c 0e4c 663d b96c 9ebd 1ca1 dabc
00000040: 7f90 13bd 8351 b33d a61a 753d 2ed6 143d
00000050: 4b37 a73d 7848 ebbc ebfd 65bd 3cdd b9bd

conv4.1.weight f4 [24]
1.0 1.0 1.0 1.0 1.0 1.0 1.0 1.0
1.0 1.0 1.0 1.0 1.0 1.0 1.0 1.0
1.0 1.0 1.0 1.0 1.0 1.0 1.0 1.0
00000000: 0000 803f 0000 803f 0000 803f 0000 803f
00000010: 0000 803f 0000 803f 0000 803f 0000 803f
00000020: 0000 803f 0000 803f 0000 803f 0000 803f
00000030: 0000 803f 0000 803f 0000 803f 0000 803f
00000040: 0000 803f 0000 803f 0000 803f 0000 803f
00000050: 0000 803f 0000 803f 0000 803f 0000 803f

conv4.1.bias f4 [24]
0.0 0.0 0.0 0.0 0.0 0.0 0.0 0.0
0.0 0.0 0.0 0.0 0.0 0.0 0.0 0.0
0.0 0.0 0.0 0.0 0.0 0.0 0.0 0.0
00000000: 0000 0000 0000 0000 0000 0000 0000 0000
00000010: 0000 0000 0000 0000 0000 0000 0000 0000
00000020: 0000 0000 0000 0000 0000 0000 0000 0000
00000030: 0000 0000 0000 0000 0000 0000 0000 0000
00000040: 0000 0000 0000 0000 0000 0000 0000 0000
00000050: 0000 0000 0000 0000 0000 0000 0000 0000

conv4.1.running_mean f4 [24]
-0.25606158 0.11486089 0.15440778 -0.09205966 -0.22877751 0.0153847225 -0.041975807 0.08552884
0.22880845 -0.4044674 -0.08808814 0.023215594 0.19738388 0.09490805 -0.19112362 0.004427942
0.18031019 0.19996831 0.1549104 -0.031870443 0.035925176 0.07241729 0.085655294 0.27168033
00000000: 811a 83be 303c eb3d 131d 1e3e c689 bcbd
00000010: a744 6abe 3410 7c3c d3ee 2bbd bf29 af3d
00000020: c34c 6a3e 5a16 cfbe 8e67 b4bd a12e be3c
00000030: 001f 4a3e 275f c23d e9b5 43be 4518 913b
00000040: 3ca3 383e 7ec4 4c3e d5a0 1e3e 958a 02bd
00000050: 4726 133d 844f 943d 0b6c af3d af19 8b3e

conv4.1.running_var f4 [24]
0.09636717 0.10283698 0.10275118 0.108187705 0.10042772 0.116352856 0.11148718 0.08346916
0.09896647 0.12276144 0.08050121 0.08671208 0.12535445 0.08431837 0.116424754 0.095858134
0.08506497 0.06436519 0.086917914 0.084835164 0.1004469 0.09050052 0.13212784 0.13853067
00000000: 275c c53d 329c d23d 366f d23d 8491 dd3d
00000010: 0cad cd3d 684a ee3d 6453 e43d e1f1 aa3d
00000020: efae ca3d 5a6a fb3d d2dd a43d 1a96 b13d
00000030: eb5c 003e 1caf ac3d 1a70 ee3d 4551 c43d
00000040: 8b36 ae3d e6d1 833d 0502 b23d 0fbe ad3d
00000050: 1bb7 cd3d 5658 b93d 854c 073e fcda 0d3e

fc1.0.weight f4 [2, 96]
0.070122376 -0.0050468 -0.055968072 -0.084378935 0.05694838 0.095540196 -0.04868556 0.026607126
0.033013135 -0.03261604 -0.08754817 0.09246084 -0.036645815 0.0057318434 0.09893772 0.06750338
-0.014822274 0.0037677512 -0.031160511 -0.08914066 0.09790173 -0.011395276 -0.07513059 -0.03702621
0.012137264 -0.08203477 -0.07996862 -0.0678007 -0.021331668 0.03844197 -0.06432718 0.04095097
-0.040168773 -0.06328385 0.05897492 -0.09775464 0.053399727 -0.085800074 0.056637272 0.043241233
0.030685514 -0.08005371 -0.04954684 -0.10198657 0.015457533 0.051393315 -0.097555004 0.07659057
0.0036291853 -0.082205564 -0.031338856 0.079987735 -0.087285794 -0.090417854 -0.022325583 0.042291537
0.018727705 0.07261872 -0.055670667 -0.004232377 0.09592843 -0.06023703 0.041223213 0.03948155
-0.01453533 0.08425972 0.028214693 0.0040003806 -0.032491677 -0.008793056 -0.04095882 0.07084638
-0.053895347 -0.084104 -0.0151271 0.068106696 -0.012004904 -0.023067705 0.017819248 -0.02669698
-0.009532049 0.017465703 -0.04849904 0.005962476 0.006236978 0.013307273 -0.04607816 -0.06501217
0.024317756 -0.014557444 0.05049859 -0.0865294 -0.097068906 -0.051895548 0.044867888 0.094558015
0.039583012 0.09107451 -0.047411844 0.027467757 -0.031070001 0.043474853 -0.024103701 0.0513362
0.08810276 -0.01629641 -0.018091515 0.087558925 -0.024864234 0.07114081 0.045772374 0.07716216
-0.07309726 -0.00022928417 0.020853624 0.07632266 0.04173392 0.04345776 -0.023624256 0.07974015
-0.0034570992 -0.026335098 0.06420608 0.013926752 0.0037773624 0.06454998 -0.01911226 0.003695853
0.025755674 0.020924263 0.08754173 0.061902776 0.03745641 0.000901483 -0.061886683 0.03297046
0.055733964 0.011496007 -0.045549177 -0.06704488 0.034829304 0.097521976 0.09002216 -0.0067458153
0.085475534 0.046392888 -0.086884044 -0.03873296 0.07283494 -0.045301642 0.06271243 -0.07083385
0.0069160163 -0.01840178 0.03690757 -0.06441836 0.049311116 0.058328003 0.068944916 0.035723656
0.03408009 0.011440806 0.005880773 0.02778691 0.066178605 -0.004857272 -0.07058271 -0.09587435
0.03602557 -0.011654079 -0.0020634308 -0.013542712 -0.016722754 0.04890369 -0.098345205 -0.039001226
0.026872262 -0.1006506 0.053508997 0.07680328 5.2511692e-05 0.090838164 -0.036613494 0.08527137
0.08388969 0.09002435 -0.039207026 -0.027401827 0.09065616 -0.055289328 0.057763845 -0.0764543
00000000: 529c 8f3d a05f a5bb c73e 65bd ddce acbd
00000010: b442 693d 94aa c33d 826a 47bd 30f7 d93c
00000020: c838 073d 6698 05bd 744c b3bd 1c5c bd3d
00000030: ec19 16bd 30d2 bb3b dc9f ca3d 363f 8a3d
00000040: 20d9 72bc 60ec 763b 5444 ffbc 618f b6bd
00000050: b480 c83d 40b3 3abc 11de 99bd cca8 17bd
00000060: 60db 463c d801 a8bd 96c6 a3bd 18db 8abd
00000070: c0bf aebc 5475 1d3d f8bd 83bd 34bc 273d
00000080: 0388 24bd f79a 81bd b08f 713d 9633 c8bd
00000090: acb9 5a3d f3b7 afbd 7cfc 673d b81d 313d
000000a0: 3060 fb3c 33f3 a3bd a1f1 4abd 56de d0bd
000000b0: 9841 7d3c cc81 523d ebca c7bd 84db 9c3d
000000c0: a0d7 6d3b 645b a8bd 2c5d 00bd 9cd0 a33d
000000d0: e5c2 b2bd ff2c b9bd 24e4 b6bc e439 2d3d
000000e0: d86a 993c 20b9 943d ed06 64bd c0af 8abb
000000f0: 2076 c43d 1bbb 76bd acd9 283d 68b7 213d
00000100: 9825 6ebc 5c90 ac3d 8022 e73c a015 833b
00000110: fe15 05bd c010 10bc 70c4 27bd e817 913d
00000120: 5ec1 5cbd b83e acbd a8d7 77bc 867b 8b3d
00000130: 38b0 44bc 7cf8 bcbc acf9 913c a0b3 dabc
00000140: 502c 1cbc 3c14 8f3c eea6 46bd e060 c33b
00000150: 905f cc3b c006 5a3c 74bc 3cbd 1a25 85bd
00000160: 0836 c73c 5882 6ebc 9cd7 4e3d 5336 b1bd
00000170: 10cc c6bd 6d90 54bd 64c7 373d a2a7 c13d
00000180: cc21 223d 4685 ba3d ec32 42bd 1004 e13c
00000190: 8486 febc b012 323d 2075 c5bc e845 523d
000001a0: 386f b43d 0c80 85bc a834 94bc 1852 b33d
000001b0: 14b0 cbbc 46b2 913d d07b 3b3d 3207 9e3d
000001c0: 04b4 95bd 006c 70b9 38d5 aa3c 0e4f 9c3d
000001d0: 30f1 2a3d c400 323d a887 c1bc ce4e a33d
000001e0: 8090 62bb b4bc d7bc 7a7e 833d 082d 643c
000001f0: a08d 773b c832 843d 5091 9cbc 2036 723b
00000200: 90fd d23c 5c69 ab3c 1449 b33d c48d 7d3d
00000210: e46b 193d 8051 6c3a e47c 7dbd 080c 073d
00000220: 4c49 643d c059 3c3c c691 3abd d34e 89bd
00000230: 2ca9 0e3d 9ab9 c73d 8a5d b83d 000c ddbb
00000240: cc0d af3d 7806 3e3d 43f0 b1bd 74a6 1ebd
00000250: 7c2a 953d 378e 39bd 606f 803d 5611 91bd
00000260: c09f e23b 54bf 96bc 642c 173d c6ed 83bd
00000270: 74fa 493d 58e9 6e3d fe32 8d3d f852 123d
00000280: 9097 0b3d 3872 3b3c 80b3 c03b 60a1 e33c
00000290: a688 873d c029 9fbb ab8d 90bd c559 c4bd
000002a0: 8c8f 133d c0f0 3ebc a03a 07bb 40e2 5dbc
000002b0: 28fe 88bc 3c4f 483d 3669 c9bd c0bf 1fbd
000002c0: 3823 dc3c e721 cebd 402c 5b3d 0a4b 9d3d
000002d0: 0040 5c38 5c09 ba3d 08f8 15bd c2a2 ae3d
000002e0: 5cce ab3d b05e b83d 8c97 20bd cc79 e0bc
000002f0: f0a9 b93d 1077 62bd c899 6c3d 1294 9cbd

fc1.0.bias f4 [2]
-0.09572317 -0.041742723
00000000: 820a c4bd 6bfa 2abd

fc2.0.weight f4 [96, 2]
0.5637421 -0.19196492 0.18922275 0.6247358 -0.6063964 -0.49293882 0.60043126 -0.3521369
-0.21581733 0.51298875 0.07975155 -0.5198771 -0.36835942 -0.39864016 0.48845166 0.31041437
0.015957415 0.44680077 -0.3955872 0.15722007 -0.2394129 0.1590392 -0.44096914 0.5467624
-0.67814815 -0.27430162 0.61325663 0.38981014 -0.51395285 0.35678095 -0.66997445 -0.4408282
0.15544188 0.27141893 0.43967038 -0.64705485 -0.31521872 0.46944708 0.23088956 0.41590077
-0.47517985 0.3041759 -0.1470179 -0.63785285 -0.19275826 -0.482683 0.6107364 0.543704
-0.5863723 0.119161725 -0.44167283 -0.098180234 -0.52296203 -0.08816427 0.60444266 0.34960467
-0.39413643 -0.02150178 0.6800558 0.51927036 0.3908381 -0.081208885 0.045013368 -0.5753718
-0.34766573 0.6214618 0.051296413 0.22945225 -0.11472505 0.599744 0.66391665 -0.20236057
-0.0048978925 0.25239724 0.16660321 0.6862641 0.08888888 0.3695504 -0.48866075 0.06512505
0.12579453 0.4973374 0.1739313 0.10484028 -0.5556645 -0.11337745 -0.16374832 -0.23275074
-0.23268306 -0.6524428 0.6244462 0.2154572 0.5380389 0.58548695 0.15495181 -0.0235793
-0.10389298 0.5785001 0.68845946 0.41198963 0.41200072 0.16644871 0.01879853 0.51704985
0.21100289 -0.3920509 -0.07313424 0.49890107 -0.30807188 0.6612068 -0.30032486 -0.4698736
-0.5323477 0.35737973 0.6143274 -0.24942169 0.69669574 -0.38957655 0.50220066 -0.336683
-0.1172328 -0.43490353 -0.33411062 -0.26619872 0.38107997 0.27305424 -0.3192123 0.64911157
-0.6161279 -0.30219677 -0.39756918 -0.25791433 -0.63250095 -0.23944905 0.4718699 0.6829495
0.00075411797 -0.28267807 0.6470818 0.4618984 0.20151776 0.119362056 0.37178832 -0.10101557
-0.56386 0.5810123 -0.7061471 0.5549874 -0.5377548 -0.114329755 -0.38786355 0.48137826
-0.6638394 -0.62314504 0.021773398 -0.37019584 -0.24913526 -0.24289575 -0.37957838 -0.061030746
0.40934497 0.011951864 -0.36210522 -0.09412068 0.065238774 0.4270621 0.31199545 -0.6669784
0.5285209 -0.6901142 -0.55830497 0.289809 0.055045366 0.13560665 0.46703428 -0.5434594
0.29366165 -0.47034627 0.6589505 -0.6343512 -0.4468666 -0.0046949983 -0.3505968 -0.6849461
0.57969004 0.36882585 0.49439698 0.32504243 0.5291725 -0.16494852 -0.10040671 0.49972862
00000000: 6751 103f 7492 44be 9cc3 413e afee 1f3f
00000010: cb3c 1bbf 7a62 fcbe ddb5 193f 4a4b b4be
00000020: 38ff 5cbe 3b53 033f c854 a33d aa16 05bf
00000030: 9b99 bcbe 901a ccbe 5616 fa3e a2ee 9e3e
00000040: 20b9 823c 12c3 e43e 688a cabe 4cfe 203e
00000050: a828 75be 2cdb 223e b5c6 e1be 9ff8 0b3f
00000060: 1e9b 2dbf 4371 8cbe 63fe 1c3f 3295 c73e
00000070: 6a92 03bf feab b63e 7283 2bbf 3cb4 e1be
00000080: 282c 1f3e 6cf7 8a3e 7a1c e13e 63a5 25bf
00000090: 5964 a1be 5e5b f03e 506e 6c3e f2f0 d43e
000000a0: c64a f3be f2bc 9b3e dc8b 16be 534a 23bf
000000b0: 6c62 45be 3a22 f7be 3959 1c3f 2f30 0b3f
000000c0: 7f1c 16bf 100b f43d f122 e2be b812 c9bd
000000d0: d7e0 05bf 788f b4bd c1bc 1a3f 62ff b23e
000000e0: 40cc c9be 8024 b0bc 2318 2e3f e7ee 043f
000000f0: ee1b c83e d850 a6bd f05f 383d 914b 13bf
00000100: 3e01 b2be 1f18 1f3f 301c 523d 88f5 6a3e
00000110: f8f4 eabd d388 193f 71f6 293f 9c37 4fbe
00000120: 807e a0bb 363a 813e 089a 2a3e 01af 2f3f
00000130: 600b b63d b635 bd3e be31 fabe 4860 853d
00000140: 48d0 003e 02a3 fe3e 0c1b 323e 80b6 d63d
00000150: 0740 0ebf 7032 e8bd a4ad 27be 3656 6ebe
00000160: 7844 6ebe 7e06 27bf b5db 1f3f d0a0 5c3e
00000170: ebbc 093f 79e2 153f b0ab 1e3e 6029 c1bc
00000180: d8c5 d4bd 9518 143f e13e 303f 4ef0 d23e
00000190: c2f1 d23e 8871 2a3e 60ff 993c 615d 043f
000001a0: 2411 583e e5ba c8be 68c7 95bd f66f ff3e
000001b0: 99bb 9dbe d944 293f 2ec4 99be 4693 f0be
000001c0: f047 08bf 7afa b63e 8f44 1d3f 6668 7fbe
000001d0: a75a 323f 9476 c7be 3990 003f b761 acbe
000001e0: c017 f0bd adab debe 8c10 abbe 334b 88be
000001f0: ea1c c33e c4cd 8b3e cb6f a3be 2d2c 263f
00000200: 8fba 1dbf 89b9 9abe 308e cbbe 590d 84be
00000210: 95eb 21bf 2232 75be ee98 f13e c7d5 2e3f
00000220: 00b0 453a 2ebb 90be 27a7 253f f27d ec3e
00000230: ac5a 4e3e 1874 f43d 0a5b be3e 40e1 cebd
00000240: 2159 10bf 39bd 143f 0ec6 34bf a713 0e3f
00000250: 4caa 09bf b825 eabd 0d96 c6be 3677 f63e
00000260: 61f1 29bf 6f86 1fbf 205e b23c 4f8a bdbe
00000270: 501d 7fbe aab9 78be 1958 c2be 60fb 79bd
00000280: aa95 d13e c0d1 433c db65 b9be 58c2 c0bd
00000290: e89b 853d e2a7 da3e debd 9f3e 19bf 2abf
000002a0: 254d 073f 53ab 30bf 13ed 0ebf d861 943e
000002b0: 4077 613d 78dc 0a3e 1e1f ef3e 2820 0bbf
000002c0: d25a 963e 3ad1 f0be fbb0 283f d764 22bf
000002d0: b3cb e4be 80d8 99bb 6c81 b3be a158 2fbf
000002e0: 9166 143f bed6 bc3e 9a21 fd3e f66b a63e
000002f0: d977 073f 44e8 28be 08a2 cdbd 6edc ff3e

fc2.0.bias f4 [96]
-0.64250964 -0.593709 -0.10275251 -0.093771756 0.18440813 0.5546381 0.21739662 -0.062204123
0.35639447 -0.33249024 -0.039753556 -0.4374831 -0.66454715 -0.03697139 0.02362585 0.69927925
-0.6401632 0.41070026 -0.253475 -0.2990559 -0.079135835 0.43352515 -0.6207063 0.18992096
0.68619996 0.46221238 0.100425065 0.2825535 0.14803559 -0.6583898 -0.61281997 0.63731176
0.5870523 -0.053084135 -0.25175822 -0.6422366 -0.55148476 -0.3712198 -0.028701663 0.1780417
0.7019872 0.12221938 0.6243761 -0.42591313 -0.25708717 -0.29628012 -0.012570739 -0.6781457
-0.28363186 0.0850358 -0.6919388 0.18251836 0.24983639 -0.4787168 -0.29163536 0.048643112
0.66345674 -0.5298502 -0.50410545 -0.29471007 0.19485009 -0.37756655 -0.3390423 -0.44119918
0.47411972 -0.16834682 0.4343925 0.21119034 0.2623638 0.31299216 0.6761642 -0.30959532
0.15670174 -0.005752802 -0.18266678 -0.33397144 -0.41510186 0.011628628 -0.12018943 0.5806833
0.6427116 -0.65877473 -0.29677567 -0.60348636 -0.6988244 -0.22458252 -0.68476665 -0.45044696
0.23380423 0.25917524 -0.023229003 0.038111627 -0.3794946 0.4145072 0.28237993 -0.53917587
00000000: 837b 24bf 50fd 17bf e86f d2bd 680b c0bd
00000010: 7cd5 3c3e c3fc 0d3f 389d 5e3e c0c9 7ebd
00000020: 5679 b63e 293c aabe a0d4 22bd c9fd dfbe
00000030: c31f 2abf 506f 17bd 008b c13c f703 333f
00000040: bce1 23bf 4e47 d23e 7ac7 81be db1d 99be
00000050: f811 a2bd 02f7 dd3e 9ce6 1ebf a47a 423e
00000060: cdaa 2f3f 1aa7 ec3e a8ab cd3d daaa 903e
00000070: a496 173e 3c8c 28bf c5e1 1cbf dd26 233f
00000080: 0f49 163f c06e 59bd 74e6 80be 9e69 24bf
00000090: 1b2e 0dbf 8610 bebe c01f ebbc 9050 363e
000000a0: 6fb5 333f 284e fa3d 1dd7 1f3f 4911 dabe
000000b0: eea0 83be 07b2 97be 80f5 4dbc f59a 2dbf
000000c0: 3238 91be 4027 ae3d e722 31bf 18e6 3a3e
000000d0: 1cd5 7f3e 5e1a f5be 3b51 95be 003e 473d
000000e0: 4dd8 293f 43a4 07bf 0e0d 01bf 3de4 96be
000000f0: c886 473e 6750 c1be f496 adbe dce4 e1be
00000100: d2bf f23e 1c63 2cbe b268 de3e 4842 583e
00000110: 8c54 863e 8240 a03e 1919 2d3f 4783 9ebe
00000120: 6c76 203e 0082 bcbb 000d 3bbe 4efe aabe
00000130: 3b88 d4be 0086 3e3c e025 f6bd a9a7 143f
00000140: bf88 243f 76a5 28bf fbf2 97be 157e 1abf
00000150: 28e6 32bf f6f8 65be de4c 2fbf fca0 e6be
00000160: 606a 6f3e 9eb2 843e c04a bebc f01a 1c3d
00000170: 1e4d c2be 4a3a d43e 1a94 903e 6e07 0abf

fc2.1.weight f4 [96]
1.0 1.0 1.0 1.0 1.0 1.0 1.0 1.0
1.0 1.0 1.0 1.0 1.0 1.0 1.0 1.0
1.0 1.0 1.0 1.0 1.0 1.0 1.0 1.0
1.0 1.0 1.0 1.0 1.0 1.0 1.0 1.0
1.0 1.0 1.0 1.0 1.0 1.0 1.0 1.0
1.0 1.0 1.0 1.0 1.0 1.0 1.0 1.0
1.0 1.0 1.0 1.0 1.0 1.0 1.0 1.0
1.0 1.0 1.0 1.0 1.0 1.0 1.0 1.0
1.0 1.0 1.0 1.0 1.0 1.0 1.0 1.0
1.0 1.0 1.0 1.0 1.0 1.0 1.0 1.0
1.0 1.0 1.0 1.0 1.0 1.0 1.0 1.0
1.0 1.0 1.0 1.0 1.0 1.0 1.0 1.0
00000000: 0000 803f 0000 803f 0000 803f 0000 803f
00000010: 0000 803f 0000 803f 0000 803f 0000 803f
00000020: 0000 803f 0000 803f 0000 803f 0000 803f
00000030: 0000 803f 0000 803f 0000 803f 0000 803f
00000040: 0000 803f 0000 803f 0000 803f 0000 803f
00000050: 0000 803f 0000 803f 0000 803f 0000 803f
00000060: 0000 803f 0000 803f 0000 803f 0000 803f
00000070: 0000 803f 0000 803f 0000 803f 0000 803f
00000080: 0000 803f 0000 803f 0000 803f 0000 803f
00000090: 0000 803f 0000 803f 0000 803f 0000 803f
000000a0: 0000 803f 0000 803f 0000 803f 0000 803f
000000b0: 0000 803f 0000 803f 0000 803f 0000 803f
000000c0: 0000 803f 0000 803f 0000 803f 0000 803f
000000d0: 0000 803f 0000 803f 0000 803f 0000 803f
000000e0: 0000 803f 0000 803f 0000 803f 0000 803f
000000f0: 0000 803f 0000 803f 0000 803f 0000 803f
00000100: 0000 803f 0000 803f 0000 803f 0000 803f
00000110: 0000 803f 0000 803f 0000 803f 0000 803f
00000120: 0000 803f 0000 803f 0000 803f 0000 803f
00000130: 0000 803f 0000 803f 0000 803f 0000 803f
00000140: 0000 803f 0000 803f 0000 803f 0000 803f
00000150: 0000 803f 0000 803f 0000 803f 0000 803f
00000160: 0000 803f 0000 803f 0000 803f 0000 803f
00000170: 0000 803f 0000 803f 0000 803f 0000 803f

fc2.1.bias f4 [96]
0.0 0.0 0.0 0.0 0.0 0.0 0.0 0.0
0.0 0.0 0.0 0.0 0.0 0.0 0.0 0.0
0.0 0.0 0.0 0.0 0.0 0.0 0.0 0.0
0.0 0.0 0.0 0.0 0.0 0.0 0.0 0.0
0.0 0.0 0.0 0.0 0.0 0.0 0.0 0.0
0.0 0.0 0.0 0.0 0.0 0.0 0.0 0.0
0.0 0.0 0.0 0.0 0.0 0.0 0.0 0.0
0.0 0.0 0.0 0.0 0.0 0.0 0.0 0.0
0.0 0.0 0.0 0.0 0.0 0.0 0.0 0.0
0.0 0.0 0.0 0.0 0.0 0.0 0.0 0.0
0.0 0.0 0.0 0.0 0.0 0.0 0.0 0.0
0.0 0.0 0.0 0.0 0.0 0.0 0.0 0.0
00000000: 0000 0000 0000 0000 0000 0000 0000 0000
00000010: 0000 0000 0000 0000 0000 0000 0000 0000
00000020: 0000 0000 0000 0000 0000 0000 0000 0000
00000030: 0000 0000 0000 0000 0000 0000 0000 0000
00000040: 0000 0000 0000 0000 0000 0000 0000 0000
00000050: 0000 0000 0000 0000 0000 0000 0000 0000
00000060: 0000 0000 0000 0000 0000 0000 0000 0000
00000070: 0000 0000 0000 0000 0000 0000 0000 0000
00000080: 0000 0000 0000 0000 0000 0000 0000 0000
00000090: 0000 0000 0000 0000 0000 0000 0000 0000
000000a0: 0000 0000 0000 0000 0000 0000 0000 0000
000000b0: 0000 0000 0000 0000 0000 0000 0000 0000
000000c0: 0000 0000 0000 0000 0000 0000 0000 0000
000000d0: 0000 0000 0000 0000 0000 0000 0000 0000
000000e0: 0000 0000 0000 0000 0000 0000 0000 0000
000000f0: 0000 0000 0000 0000 0000 0000 0000 0000
00000100: 0000 0000 0000 0000 0000 0000 0000 0000
00000110: 0000 0000 0000 0000 0000 0000 0000 0000
00000120: 0000 0000 0000 0000 0000 0000 0000 0000
00000130: 0000 0000 0000 0000 0000 0000 0000 0000
00000140: 0000 0000 0000 0000 0000 0000 0000 0000
00000150: 0000 0000 0000 0000 0000 0000 0000 0000
00000160: 0000 0000 0000 0000 0000 0000 0000 0000
00000170: 0000 0000 0000 0000 0000 0000 0000 0000

fc2.1.running_mean f4 [96]
-0.8760816 -0.624816 0.100495845 -0.35267904 0.30398586 0.48778337 0.33405364 -0.2318664
0.38081622 -0.16704373 0.06476026 -0.22756287 -0.4182434 -0.24997869 0.24904251 0.9309597
-0.68230873 0.19440548 -0.09802339 -0.36078364 0.12751238 0.44723177 -0.5784689 -0.01154056
0.92362326 0.62815 0.29883066 0.07023301 0.3006505 -0.88862866 -0.77119344 0.58023
0.7656206 -0.05739326 -0.16574973 -0.91568583 -0.53224975 -0.38926136 -0.038093966 0.37355608
0.6869353 0.061414067 0.8338367 -0.37786636 -0.21089019 -0.52562654 -0.18274336 -0.7403432
-0.20331603 -0.1558506 -0.84159106 0.21065012 0.1404398 -0.41588858 -0.12581883 0.13381341
0.8961059 -0.78714156 -0.8032171 -0.51415294 0.21083893 -0.26521072 -0.4692905 -0.2718572
0.6942617 -0.03061299 0.66524166 0.073575035 0.24267088 0.09170742 0.60557014 -0.46188042
0.4170172 0.30840492 0.019726723 -0.14930002 -0.19833072 -0.022287559 -0.03945629 0.724894
0.48349527 -0.52366585 -0.29297516 -0.77123266 -0.9528105 0.013578189 -0.69698125 -0.67033064
0.08671879 -0.04197687 0.1511545 0.12817729 -0.58081865 0.24352431 0.06417697 -0.46562847
00000000: e246 60bf f1f3 1fbf c4d0 cd3d 5992 b4be
00000010: 09a4 9b3e bebe f93e 1409 ab3e 636e 6dbe
00000020: 58fa c23e 830d 2bbe 07a1 843d 3e06 69be
00000030: 0024 d6be 6afa 7fbe 0005 7f3e 6053 6e3f
00000040: c9ab 2ebf 3b12 473e 7dc0 c8bd a2b8 b8be
00000050: 9b92 023e 90fb e43e 8a16 14bf 9e14 3dbc
00000060: 9372 6c3f 70ce 203f 5500 993e 53d6 8f3d
00000070: ddee 993e 2b7d 63bf ef6c 45bf f489 143f
00000080: b6ff 433f 3215 6bbd 4cba 29be 636a 6abf
00000090: 8541 08bf 444d c7be 6b08 1cbd be42 bf3e
000000a0: feda 2f3f 518d 7b3d 5276 553f b377 c1be
000000b0: 99f3 57be 768f 06bf 1321 3bbe 2287 3dbf
000000c0: 1432 50be 4d97 1fbe 8372 57bf aab4 573e
000000d0: 73cf 0f3e 59ef d4be a7d6 00be 6206 093e
000000e0: 3267 653f 1c82 49bf a39f 4dbf 879f 03bf
000000f0: 29e6 573e b3c9 87be d846 f0be de30 8bbe
00000100: 23bb 313f 18c8 fabc 474d 2a3f 82ae 963d
00000110: b77e 783e 1ad1 bb3d a506 1b3f 977b ecbe
00000120: 4783 d53e 40e7 9d3e f099 a13c 1be2 18be
00000130: 3517 4bbe 6694 b6bc eb9c 21bd a792 393f
00000140: b18c f73e f70e 06bf d700 96be 816f 45bf
00000150: 64eb 73bf 0d77 5e3c 5d6d 32bf ca9a 2bbf
00000160: 9f99 b13d f0ef 2bbd 3fc8 1a3e e840 033e
00000170: 88b0 14bf 705e 793e 376f 833d db66 eebe

fc2.1.running_var f4 [96]
0.048117157 0.04287687 0.069371894 0.064430654 0.034981336 0.029204823 0.032104053 0.039412197
0.020368412 0.02450978 0.01088702 0.060568344 0.066360496 0.06213149 0.051398102 0.075322874
0.010106128 0.07337767 0.038275 0.023319246 0.042070724 0.0430643 0.027348861 0.07493729
0.04866879 0.026438953 0.036714885 0.058093913 0.020734422 0.08393192 0.021662636 0.034599435
0.059240796 0.005556309 0.03971628 0.06544276 0.0065486045 0.050123107 0.014519721 0.032955684
0.026450992 0.0048876987 0.04169193 0.008530157 0.04841895 0.05485982 0.06884976 0.0033342354
0.036694825 0.076358 0.024488319 0.02727574 0.02304375 0.026800161 0.06078362 0.03243522
0.054132584 0.05942749 0.084978566 0.048139766 0.020396361 0.020791221 0.025429608 0.060153343
0.057244804 0.026351644 0.057062835 0.072438836 0.008188693 0.07317256 0.00651595 0.020178529
0.08246973 0.10469905 0.03911355 0.046906803 0.092192136 0.014231323 0.013389808 0.01932232
0.022397371 0.017935364 0.01880433 0.0619657 0.09209826 0.05299021 0.002169726 0.06357653
0.03644351 0.106151484 0.026736438 0.06066977 0.055539392 0.041001588 0.041728064 0.027739525
00000000: 7f16 453d a89f 2f3d da12 8e3d 38f4 833d
00000010: 9748 0f3d f43e ef3c 8a7f 033d af6e 213d
00000020: a8db a63c bcc8 c83c 795f 323c 8316 783d
00000030: 03e8 873d 977d 7e3d d186 523d e142 9a3d
00000040: 2c94 253c 0847 963d 3fc6 1c3d 0108 bf3c
00000050: 5a52 2c3d 3164 303d b80a e03c b978 993d
00000060: ed58 473d 8196 d83c 5962 163d e2f3 6d3d
00000070: 3cdb a93c 80e4 ab3d d775 b13c 23b8 0d3d
00000080: 7aa6 723d b311 b63b 8aad 223d db06 863d
00000090: ad95 d63b e34d 4d3d 20e4 6d3c 8afc 063d
000000a0: c0af d83c fd28 a03b 28c5 2a3d 12c2 0b3c
000000b0: f352 463d b1b4 603d 1a01 8d3d 3083 5a3b
000000c0: 504d 163d 9561 9c3d ba9b c83c 5f71 df3c
000000d0: 3fc6 bc3c 038c db3c 3ff8 783d cbda 043d
000000e0: 21ba 5d3d 3d6a 733d 3e09 ae3d 342e 453d
000000f0: 4516 a73c 5a52 aa3c c151 d03c 5a63 763d
00000100: 8779 6a3d 67df d73c b8ba 693d d05a 943d
00000110: de29 063c 7fdb 953d c083 d53b 714d a53c
00000120: e4e5 a83d 756c d63d 8835 203d 5921 403d
00000130: 3bcf bc3d 7f2a 693c ed60 5b3c d849 9e3c
00000140: b17a b73c 2fed 923c 8a0b 9a3c bfcf 7d3d
00000150: 039e bc3d 430c 593d f631 0e3b 6934 823d
00000160: ca45 153d f365 d93d 6006 db3c dd80 783d
00000170: 467d 633d 48f1 273d 0ceb 2a3d 003e e33c

conv5.0.weight f4 [24, 12, 3, 3]
0.020911485 0.069772504 0.00535623 -0.08835018 0.081968434 0.020033918 0.04694026 0.02706816
-0.058004495 0.042488955 -0.068921216 0.0556821 -0.08108935 0.045575313 -0.051089752 -0.048670642
-0.005110413 -0.080711514 -0.045736793 0.04928743 -0.022714637 0.08477811 -0.003905736 -0.07542829
0.005194925 -0.041552372 0.06949473 -0.028981104 -0.0927029 0.0076227784 0.007597409 -0.06940968
0.062370293 0.02609592 -0.035248324 0.013402544 0.041278236 -0.015195034 -0.09498446 0.03115017
-0.006298512 0.09350569 -0.045801923 0.00520245 -0.08640783 0.057353534 0.03838887 -0.08918742
-0.05883283 0.06783668 0.05122385 -0.08114268 0.041614883 0.02746182 -0.05842504 0.061895855
0.028634556 -0.0810884 -0.06275597 -0.087247975 -0.007862292 -0.03272535 -0.082216255 0.014935054
0.010067254 0.082468115 0.052849256 -0.03489237 0.09606869 -0.0559905 0.02358567 0.0959099
0.06821608 0.036951892 0.08231195 0.031275697 0.016557135 -0.058514662 0.009241283 0.0400516
-0.06772843 -0.03560571 0.07119351 0.07992243 0.05215896 -0.017433904 0.010054834 0.0056668893
0.05062952 0.01518742 -0.09052675 0.055498414 0.08914224 0.06320033 0.044702075 -0.071653016
-0.07663813 0.009377912 -0.04006042 -0.087378204 0.04636834 0.06300985 0.091081105 -0.041671142
-0.0016307384 0.048980154 0.07541279 0.08059833 0.086720265 0.06741653 -0.07782943 -0.06714755
-0.04531355 -0.077879675 0.053250857 -0.07986702 0.07879012 0.07448015 -0.05984047 -0.091708735
-0.051474534 0.08308124 -0.06887334 0.074821256 0.09325912 0.077141784 -0.010445714 0.07792335
0.039726086 -0.049620904 0.007022932 -0.088766135 0.058545493 -0.02693849 0.04224763 0.09509962
0.016746357 -0.03908764 0.07199686 -0.08117282 0.083621986 -0.081934094 -0.01955825 0.018025652
-0.07678929 -0.058331218 -0.022136867 -0.008297592 0.02896855 0.007855363 -0.068920575 0.05332271
0.06880564 0.09306925 -0.075202234 0.061563857 -0.018747896 -0.06061944 -0.024280265 0.036879413
0.093539245 -0.08158912 -0.034114376 0.061761282 0.0027785078 -0.010157578 -0.021565996 0.07730547
0.07835228 -0.01871071 0.08069671 -0.044747047 -0.07441443 0.05017873 0.068418644 -0.012816668
0.06386758 -0.04964871 -0.048027925 -0.03636964 -0.06568502 -0.027071506 0.020235814 -0.08957692
-0.045242373 -0.016730934 -0.032010965 0.0004233718 -0.04484221 0.005688943 -0.036589492 -0.0005543679
-0.05740743 -0.042877767 -0.04227683 0.09336946 -0.063220285 0.013031207 -0.036074907 -0.04995878
-0.035695355 -0.019193716 -0.008666441 -0.060865488 0.028873302 0.08123218 -0.08321966 0.061234243
0.09057266 -0.00892175 -0.03894945 0.007141769 0.08373322 0.0895557 -0.09622249 0.07168431
0.050949536 -0.033137076 -0.068118066 0.041850857 0.04623998 -0.0015466362 -0.041522745 -0.05859629
-0.021219678 -0.015760608 -0.01473733 0.095175184 -0.053765554 0.054599516 -0.049029622 0.028118744
0.08433949 0.062741615 -0.02270601 -0.046334587 0.060924985 0.09447973 0.09117908 0.05890032
-0.025730215 0.017235927 0.07531405 0.043192826 -0.05177404 0.020934269 0.053907596 -0.06766654
-0.0062818676 0.04262895 -0.015770152 -0.07297374 0.037804656 -0.048829604 -0.032811247 0.0140719265
00000000: 904e ab3c e3e4 8e3d 5083 af3b f0f0 b4bd
00000010: 11df a73d 2c1e a43c 6e44 403d 0cbe dd3c
00000020: 1f96 6dbd e608 2e3d 9126 8dbd ea12 643d
00000030: 2c12 a6bd 2ead 3a3d 7d43 51bd de5a 47bd
00000040: 4075 a7bb 144c a5bd 8156 3bbd 9ee1 493d
00000050: 0c14 babc 25a0 ad3d 60f7 7fbb 267a 9abd
00000060: 303a aa3b d232 2abd 4153 8e3d c869 edbc
00000070: 05db bdbd 80c8 f93b b0f3 f83b aa26 8ebd
00000080: fe77 7f3d 1cc7 d53c 8c60 10bd 5896 5b3c
00000090: 5e13 293d 98f4 78bc 3687 c2bd a42e ff3c
000000a0: c063 cebb e97f bf3d cc9a 3bbd 5079 aa3b
000000b0: 97f6 b0bd 8aeb 6a3d a63d 1d3d e5a7 b6bd
000000c0: b2fa 70bd f5ed 8a3d 1ad0 513d 222e a6bd
000000d0: 5e74 2a3d 9cf7 e03c 184f 6fbd 8286 7d3d
000000e0: 0493 ea3c ad11 a6bd 3486 80bd 11af b2bd
000000f0: d8d0 00bc 040b 06bd ff60 a8bd 28b2 743c
00000100: 20f1 243c 0be5 a83d 7678 583d 4deb 0ebd
00000110: a9bf c43d 4b56 65bd bc36 c13c 696c c43d
00000120: dfb4 8b3d de5a 173d 2b93 a83d f21a 003d
00000130: d4a2 873c 12ad 6fbd c068 173c 260d 243d
00000140: 34b5 8abd 4bd7 11bd e7cd 913d 5fae a33d
00000150: a2a4 553d 8cd1 8ebc 08bd 243c 50b1 b93b
00000160: e660 4f3d a8d4 783c 1766 b9bd 4e52 633d
00000170: 3590 b63d 2d6f 813d 8619 373d d1be 92bd
00000180: 74f4 9cbd d0a5 193c 6516 24bd 58f3 b2bd
00000190: baec 3d3d 4f0b 813d bb88 ba3d 5caf 2abd
000001a0: 80be d5ba 6a9f 483d 0572 9a3d bd10 a53d
000001b0: 659a b13d ad11 8a3d 0965 9fbd a884 89bd
000001c0: b39a 39bd 617f 9fbd 921d 5a3d 5291 a3bd
000001d0: b75c a13d 0d89 983d 481b 75bd cad1 bbbd
000001e0: f6d6 52bd 7f26 aa3d 770d 8dbd e33b 993d
000001f0: a3fe be3d 83fc 9d3d 8024 2bbc 4796 9f3d
00000200: d2b7 223d 4a3f 4bbd a020 e63b 05cb b5bd
00000210: 66cd 6f3d 1cae dcbc da0b 2d3d 97c3 c23d
00000220: a82f 893c 5c1a 20bd 1773 933d ef3d a6bd
00000230: 0142 ab3d 10cd a7bd a038 a0bc 88aa 933c
00000240: b443 9dbd b7ec 6ebd 6058 b5bc a0f2 07bc
00000250: 744f ed3c c8b3 003c 3b26 8dbd ea68 5a3d
00000260: f9e9 8c3d 179b be3d a103 9abd 622a 7c3d
00000270: 3095 99bc 174c 78bd 68e7 c6bc de0e 173d
00000280: 8191 bf3d 3218 a7bd 84bb 0bbd 66f9 7c3d
00000290: a017 363b f86b 26bc 2cab b0bc 5552 9e3d
000002a0: 2977 a03d 3447 99bc 5144 a53d ae48 37bd
000002b0: 9866 98bd 3688 4d3d 131f 8c3d 00fd 51bc
000002c0: 01cd 823d 725c 4bbd eeb8 44bd 55f8 14bd
000002d0: de85 86bd 10c5 ddbc 94c5 a53c 1b74 b7bd
000002e0: 1150 39bd 500f 89bc ee1d 03bd 00f8 dd39
000002f0: 77ac 37bd 506a ba3b ddde 15bd 0053 11ba
00000300: 0e24 6bbd 99a0 2fbd 782a 2dbd 7d38 bf3d
00000310: a379 81bd d880 553c 48c3 13bd 94a1 4cbd
00000320: 4b35 12bd 243c 9dbc b0fd 0dbc 174e 79bd
00000330: b487 ec3c 0f5d a63d 126f aabd c2d0 7a3d
00000340: 297e b93d 882c 12bc 7589 1fbd 8005 ea3b
00000350: 537c ab3d fb68 b73d 4c10 c5bd 39cf 923d
00000360: 76b0 503d beba 07bd 7c81 8bbd ce6b 2b3d
00000370: 2266 3d3d 80b8 caba c113 2abd aa02 70bd
00000380: e4d4 adbc 641c 81bc d874 71bc 35eb c23d
00000390: 4539 5cbd bea3 5f3d 49d3 48bd 4859 e63c
000003a0: 2fba ac3d ad7e 803d f401 babc 56c9 3dbd
000003b0: 7a8c 793d 977e c13d 19bc ba3d 7641 713d
000003c0: 2cc8 d2bc 5c32 8d3c 413e 9a3d f6ea 303d
000003d0: 0411 54bd 587e ab3c 36ce 5c3d c194 8abd
000003e0: 20d8 cdbb b29b 2e3d 6830 81bc 4273 95bd
000003f0: 0ed9 1a3d 8d01 48bd 1665 06bd f08d 663c

conv5.0.bias f4 [12]
-0.0298867 -0.034440942 0.03407287 0.095176406 0.008057825 0.062484734 0.07329289 -0.067025736
-0.049806617 -0.06733803 0.005025409 -0.08866314
00000000: f4d4 f4bc f211 0dbd fe8f 0b3d d9eb c23d
00000010: f804 043c feef 7f3d 951a 963d ca44 89bd
00000020: 0602 4cbd 85e8 89bd 30ac a43b 0595 b5bd

conv5.1.weight f4 [12]
1.0 1.0 1.0 1.0 1.0 1.0 1.0 1.0
1.0 1.0 1.0 1.0
00000000: 0000 803f 0000 803f 0000 803f 0000 803f
00000010: 0000 803f 0000 803f 0000 803f 0000 803f
00000020: 0000 803f 0000 803f 0000 803f 0000 803f

conv5.1.bias f4 [12]
0.0 0.0 0.0 0.0 0.0 0.0 0.0 0.0
0.0 0.0 0.0 0.0
00000000: 0000 0000 0000 0000 0000 0000 0000 0000
00000010: 0000 0000 0000 0000 0000 0000 0000 0000
00000020: 0000 0000 0000 0000 0000 0000 0000 0000

conv5.1.running_mean f4 [12]
0.10013095 0.0068254485 0.097416416 0.06702828 0.03088386 0.13283898 0.085981265 -0.03319424
-0.08161399 -0.11552984 -0.077513754 0.021484418
00000000: 7511 cd3d 03a8 df3b 4282 c73d 1f46 893d
00000010: 2600 fd3c f106 083e f216 b03d aff6 07bd
00000020: 3c25 a7bd e99a ecbd 88bf 9ebd 1700 b03c

conv5.1.running_var f4 [12]
0.055064768 0.05683881 0.037560947 0.03345186 0.04459772 0.07340667 0.06015212 0.058627333
0.04786061 0.05982582 0.047707252 0.07575377
00000000: 988b 613d d0cf 683d 82d9 193d d104 093d
00000010: 19ac 363d 3c56 963d 1262 763d 3723 703d
00000020: 7d09 443d eb0b 753d ae68 433d cb24 9b3d
